Assets/NN/Pixel 35.onnx (onnx, 482050 bytes, 9 tensors)

network_body.observation_encoder.processors.0.normalizer.running_mean f4 [204]
0	0x39b701ad	0.00034905729
1	0x3a37c88c	0.000701078
2	0x39f74a82	0.00047167024
3	0x3a8e4f20	0.0010857321
4	0x39d7faae	0.00041194767
5	0x39e50ab5	0.0004368626
6	0x3a067ace	0.00051299937
7	0x3a135667	0.000562048
8	0x3a1a8b61	0.0005895403
9	0x3a824116	0.000993761
10	0x3b2dd3ac	0.0026523871
11	0x3bd36bef	0.0064520757
12	0x3b144f6a	0.0022630342
13	0x3b32bae7	0.0027272047
14	0x3ad2a398	0.0016070483
15	0x3ae6db06	0.0017612881
16	0x3b015f96	0.0019740812
17	0x3a94241e	0.0011302268
18	0x3b00533a	0.0019580857
19	0x3ae8d404	0.0017763381
20	0x3bf0bf0e	0.0073469942
21	0x3d00dad7	0.031458702
22	0x3cadbd78	0.02120851
23	0x3c824947	0.015904082
24	0x3c063b34	0.008192826
25	0x3b5491b7	0.0032435486
26	0x3b11a41b	0.0022223059
27	0x3b196940	0.002340868
28	0x3b180da0	0.002320148
29	0x3a5b8e73	0.00083754136
30	0x3ab7c830	0.0014021453
31	0x3b5ded17	0.003386324
32	0x3c19ef0b	0.009395371
33	0x3e2b0364	0.16700512
34	0x3ee9046e	0.45511192
35	0x3ccf6957	0.025318785
36	0x3b22ccab	0.002484123
37	0x3b4aa4a0	0.0030920878
38	0x3b5a7b3f	0.003333762
39	0x3a7b7023	0.00095916
40	0x3a0bdf56	0.0005335709
41	0x3ad37ef7	0.0016135861
42	0x3b13c07c	0.002254515
43	0x3db9445a	0.0904624
44	0x3e4e9927	0.2017561
45	0x3e886b26	0.26644248
46	0x3dfe0d9f	0.12404942
47	0x3c07b2af	0.008282348
48	0x3b640e30	0.0034798495
49	0x3ad629b0	0.0016339328
50	0x3a030221	0.00049975706
51	0x3a7be74a	0.0009609355
52	0x3ae1acbe	0.0017217619
53	0x3b6eb979	0.0036426468
54	0x3b998b8c	0.0046858247
55	0x3cfab225	0.030602524
56	0x3e005d15	0.12535508
57	0x3d9f6ba6	0.07784204
58	0x3b906793	0.0044068783
59	0x3a3b2757	0.0007139346
60	0x39afa536	0.00033501693
61	0x3a44f351	0.00075130636
62	0x3ab914bd	0.001412056
63	0x3b363ac0	0.0027806014
64	0x3b7e44de	0.0038798372
65	0x3bca8a82	0.006181062
66	0x3c447f63	0.011993262
67	0x3ccee343	0.025254851
68	0x3d45f35a	0.04832778
69	0x3d45a8c6	0.048256658
70	0x3971979b	0.00023040028
71	0x3a539f58	0.00080727553
72	0x3a762528	0.0009389692
73	0x3ab0e378	0.0013495525
74	0x3aed6430	0.0018111523
75	0x3b80d292	0.003931352
76	0x3bd03d27	0.006354946
77	0x3bf89b63	0.007586883
78	0x3ce7b882	0.028286222
79	0x3d09a228	0.03360191
80	0x3935a853	0.00017324211
81	0x3a5df088	0.0008466323
82	0x3a2105fe	0.00061425555
83	0x3a16a867	0.000574714
84	0x3a826f96	0.0009951468
85	0x3ac616ad	0.0015112959
86	0x3aa318a3	0.0012443255
87	0x3aeddb30	0.0018146988
88	0x3b281fc8	0.0025653709
89	0x3ab00275	0.0013428467
90	0x3913a5f4	0.00014080835
91	0x399d6599	0.0003002107
92	0x398f65ec	0.00027351023
93	0x39cb6e92	0.0003880156
94	0x3a01de83	0.00049541163
95	0x39ac1e2a	0.0003282887
96	0x39a1c0a2	0.00030851836
97	0x3a0cf6f3	0.00053773745
98	0x3a2951dc	0.00064590364
99	0x39d03399	0.00039711295
100	0x00000000	0.0
101	0x00000000	0.0
102	0x00000000	0.0
103	0x00000000	0.0
104	0x00000000	0.0
105	0x00000000	0.0
106	0x00000000	0.0
107	0x00000000	0.0
108	0x00000000	0.0
109	0x00000000	0.0
110	0x00000000	0.0
111	0x00000000	0.0
112	0x00000000	0.0
113	0x00000000	0.0
114	0x00000000	0.0
115	0x00000000	0.0
116	0x00000000	0.0
117	0x00000000	0.0
118	0x00000000	0.0
119	0x3f7f6a76	0.9977182
120	0x00000000	0.0
121	0x00000000	0.0
122	0x00000000	0.0
123	0x00000000	0.0
124	0x00000000	0.0
125	0x00000000	0.0
126	0x00000000	0.0
127	0x00000000	0.0
128	0x00000000	0.0
129	0x00000000	0.0
130	0x00000000	0.0
131	0x00000000	0.0
132	0x00000000	0.0
133	0x00000000	0.0
134	0x3f0b1c50	0.54340076
135	0x00000000	0.0
136	0x00000000	0.0
137	0x00000000	0.0
138	0x00000000	0.0
139	0x00000000	0.0
140	0x00000000	0.0
141	0x00000000	0.0
142	0x00000000	0.0
143	0x00000000	0.0
144	0x00000000	0.0
145	0x00000000	0.0
146	0x00000000	0.0
147	0x00000000	0.0
148	0x00000000	0.0
149	0x00000000	0.0
150	0x00000000	0.0
151	0x00000000	0.0
152	0x00000000	0.0
153	0x00000000	0.0
154	0x00000000	0.0
155	0x00000000	0.0
156	0x00000000	0.0
157	0x00000000	0.0
158	0x00000000	0.0
159	0x00000000	0.0
160	0x00000000	0.0
161	0x00000000	0.0
162	0x00000000	0.0
163	0x00000000	0.0
164	0x00000000	0.0
165	0x00000000	0.0
166	0x00000000	0.0
167	0x00000000	0.0
168	0x00000000	0.0
169	0x00000000	0.0
170	0x00000000	0.0
171	0x00000000	0.0
172	0x00000000	0.0
173	0x00000000	0.0
174	0x00000000	0.0
175	0x00000000	0.0
176	0x00000000	0.0
177	0x00000000	0.0
178	0x00000000	0.0
179	0x00000000	0.0
180	0x00000000	0.0
181	0x00000000	0.0
182	0x00000000	0.0
183	0x00000000	0.0
184	0x00000000	0.0
185	0x00000000	0.0
186	0x00000000	0.0
187	0x00000000	0.0
188	0x00000000	0.0
189	0x00000000	0.0
190	0x00000000	0.0
191	0x00000000	0.0
192	0x00000000	0.0
193	0x00000000	0.0
194	0x00000000	0.0
195	0x00000000	0.0
196	0x00000000	0.0
197	0x00000000	0.0
198	0x00000000	0.0
199	0x00000000	0.0
200	0x407d02f7	3.953306
201	0x4098cd94	4.775095
202	0x00000000	0.0
203	0x00000000	0.0

network_body._body_endoder.seq_layers.0.weight f4 [256, 204]
0	0x3d013b34	0.0315506
1	0xbc41943c	-0.011815127
2	0x3cb68b44	0.022283204
3	0xbd9f0a5d	-0.077656485
4	0xbccc94e2	-0.024973337
5	0xbd383f75	-0.044982392
6	0x3d8ab73c	0.067732304
7	0x3d5d4e2c	0.05402963
8	0x3db019b3	0.08598652
9	0x3da53898	0.08067435
10	0x3c614618	0.013749622
11	0xbcfaa1fa	-0.030594815
12	0x3ca0a5a4	0.019610234
13	0x3c65722b	0.014004271
14	0xbd403c2d	-0.046932388
15	0xbc875572	-0.016520236
16	0xbc6518fc	-0.0139830075
17	0xbd369a96	-0.04458102
18	0xbda667fc	-0.08125302
19	0x3cb367d7	0.0219001
20	0x3c8c8811	0.017154725
21	0x3c8c7392	0.017144952
22	0xbb86c764	-0.0041131247
23	0x3d0d7370	0.034533918
24	0x3dc8e015	0.09808365
25	0x3b2ed28b	0.0026675786
26	0xbcdd8dc5	-0.02704514
27	0x3c036406	0.008019453
28	0xbe113276	-0.14179406
29	0xbca7e814	-0.020496406
30	0x3cdc1b6a	0.02686854
31	0xbaa68acd	-0.0012706161
32	0xbd636acf	-0.055521782
33	0xbd445470	-0.04793209
34	0x3d9f2a52	0.07771744
35	0x3cb6fe05	0.022337923
36	0xbd45eef8	-0.0483236
37	0x3cfb2735	0.030658344
38	0x3b9ce9e0	0.0047886223
39	0xbe1a15b8	-0.15047348
40	0xbe102a04	-0.14078528
41	0xbce31cdd	-0.027723724
42	0xbe359b6b	-0.17735069
43	0xbddf0db3	-0.10891285
44	0xbea4b8cb	-0.32172236
45	0xbcb8e146	-0.022568356
46	0x3d76f5f2	0.060293145
47	0x3e42b073	0.19012623
48	0xbd3683cf	-0.044559296
49	0xbca9a984	-0.020710714
50	0x3d5a1ba9	0.053249035
51	0xbb56b2bb	-0.003276034
52	0xbcdfb9da	-0.0273103
53	0x3aee2620	0.0018169321
54	0xbda8a569	-0.082346745
55	0x3d996546	0.074900195
56	0x3d978467	0.073983006
57	0x3cf921df	0.030411659
58	0x3c487f60	0.0122374
59	0x3de3cac6	0.1112266
60	0x3d294225	0.041322846
61	0x3d456cda	0.048199512
62	0xbd88d7a1	-0.06681753
63	0x3d966d53	0.07345071
64	0x3cdd4c75	0.027013997
65	0x3dda1e37	0.10650294
66	0xbcda577c	-0.026653044
67	0x3c803d3f	0.015654204
68	0x3cb8d6d1	0.02256337
69	0xbdb68226	-0.089115426
70	0xbc857229	-0.016289787
71	0xbd97bbb5	-0.07408849
72	0xbd3c8c0d	-0.046032
73	0x3e0ca0be	0.13733193
74	0xbd0445c9	-0.032293115
75	0x3d74dfcd	0.059783746
76	0xbd5cd76a	-0.053916372
77	0xbd07d0bc	-0.03315805
78	0xbd5a6998	-0.05332336
79	0x3d8c5ac6	0.06853251
80	0x3d8d4342	0.06897594
81	0xbd7574b8	-0.059925765
82	0xbcd3215b	-0.025772741
83	0x3c07d388	0.008290179
84	0xbd8b837b	-0.06812187
85	0x3d15cb03	0.03657056
86	0x3dbde4f5	0.09272186
87	0xbbb8204b	-0.005619084
88	0x3be1e1d4	0.006893376
89	0xbb6ec94f	-0.0036435907
90	0x3db208ee	0.086931095
91	0xbc4b526e	-0.0124097895
92	0x3cfb412e	0.030670729
93	0xbce61dcc	-0.02809038
94	0x3b7ad77d	0.0038275414
95	0xbb1374fa	-0.0022500143
96	0xbdfe1268	-0.124058545
97	0xbd9c8ad4	-0.07643667
98	0xbdc91e84	-0.098202735
99	0xbde1643b	-0.110054456
100	0xbc925cf1	-0.017866584
101	0xbb3444d6	-0.002750685
102	0x3e02ff7e	0.12792775
103	0x3dbe2e02	0.09286119
104	0x3d7ba778	0.061439008
105	0x3e12694c	0.1429798
106	0x3c9d8441	0.019228103
107	0x3d165812	0.036705084
108	0xbd03a3d0	-0.032138646
109	0x3da3e3c1	0.08002425
110	0x3c9999e2	0.018750135
111	0xbd72e73d	-0.059302557
112	0x3bbcc327	0.0057605687
113	0x3bd22a9c	0.006413771
114	0xbbd2f806	-0.006438258
115	0x3d96ebbd	0.07369182
116	0xbc78ee92	-0.015193598
117	0xbd8d09df	-0.068866484
118	0x3cf30a05	0.029667864
119	0x3dc4834e	0.09595357
120	0x3ce9b65c	0.028529339
121	0xbc08b966	-0.008344984
122	0xbe007aa4	-0.12546784
123	0xbe3b47a6	-0.1828905
124	0xbdb9e7f9	-0.090774484
125	0xbcf8a1df	-0.030350624
126	0x3e0a6c6f	0.13517927
127	0x3de68916	0.11256616
128	0x3e2b44df	0.16725491
129	0x3cf8d128	0.030373171
130	0x3e06dc64	0.1317001
131	0x3e1f79af	0.15573762
132	0x3ce9127a	0.028451193
133	0xbda052b4	-0.07828274
134	0x3e1eea6a	0.1551911
135	0x3c913ca4	0.017729111
136	0x3c1dbc2c	0.009627383
137	0x3dcdf95b	0.100573264
138	0x3d9d8900	0.07692146
139	0x3d0a2c24	0.033733502
140	0x3e038f89	0.12847723
141	0x3d237b2b	0.039912384
142	0x3d3474c7	0.04405668
143	0x3d4218e7	0.04738703
144	0xbd89d838	-0.067306936
145	0x3c7df944	0.015501324
146	0x3cdda14a	0.027054448
147	0x3cc6a293	0.024247443
148	0x3ddf14ae	0.10892616
149	0x3b4b7797	0.0031046623
150	0xbde02058	-0.10943669
151	0x3d4857df	0.048911925
152	0xbd9492e0	-0.07254577
153	0xbbc58082	-0.006027282
154	0x3aed7ccf	0.0018118861
155	0xbdbe7263	-0.09299161
156	0x3e2bbe07	0.16771708
157	0x3cb875e1	0.022517147
158	0xbd30b9b0	-0.043145835
159	0xbdf454e7	-0.11930256
160	0xbdb61196	-0.08890073
161	0x3defcd57	0.11709087
162	0xbca5ece8	-0.020254567
163	0x3d366444	0.044529215
164	0x3db987b4	0.090590864
165	0xbc3b9e92	-0.01145138
166	0x3cbd0618	0.023074195
167	0xbd853431	-0.06504095
168	0x3d17372b	0.036917847
169	0xbc99c12b	-0.018768867
170	0x3d66c092	0.056335993
171	0x3e23808f	0.1596701
172	0x3e0d3e01	0.13793184
173	0x3d36c25d	0.044618953
174	0x3d756898	0.0599142
175	0xbd98ba7e	-0.074574456
176	0xbdbc7f2c	-0.092039436
177	0x3caa19e4	0.020764299
178	0x3d8057fa	0.0626678
179	0xbda8b521	-0.082376726
180	0x3d16b105	0.036789913
181	0xb6ab6b6d	-5.108703e-06
182	0x3dd1db29	0.102468796
183	0xbd078086	-0.033081554
184	0x3d4b4cd2	0.04963381
185	0xbdd630da	-0.104585364
186	0x3c3804e8	0.0112316385
187	0x3c14e58c	0.009087931
188	0xbd2eaa72	-0.042643018
189	0xbc1edb8c	-0.009695899
190	0x3d4f9a68	0.050684363
191	0xbd14d578	-0.036336392
192	0x3db1dc8b	0.08684643
193	0xbdae7df9	-0.08520121
194	0x3d52a582	0.05142737
195	0x3dacb1a8	0.08432323
196	0xbdbdfe3a	-0.092770055
197	0xbc54629a	-0.012962962
198	0x3e2f3bea	0.17112699
199	0xbd0806ee	-0.033209734
200	0xbe32d52b	-0.1746413
201	0xbe0e90a1	-0.13922359
202	0x3d0ffc0e	0.035152487
203	0x3d12a945	0.03580596
204	0xbe138d1e	-0.144093
205	0x3d319a7b	0.043360215
206	0x3d0aa246	0.033846162
207	0x3c3e2971	0.01160656
208	0x3d544511	0.05182368
209	0x3d5d1f14	0.053984717
210	0xbe0a70e0	-0.13519621
211	0xbda8b3d9	-0.08237428
212	0x3d4df213	0.050279688
213	0xbdfe99eb	-0.12431701
214	0xbd1b797b	-0.03795765
215	0xbdf184e8	-0.11792928
216	0x3c9a9297	0.018868728
217	0x3d963c6d	0.07335744
218	0xbb82e38c	-0.003994411
219	0x3c87da57	0.016583605
220	0xbaa79ad5	-0.0012787232
221	0x3d9e80d6	0.07739417
222	0x3c76d59e	0.015065579
223	0xbde8929c	-0.113560885
224	0x3d56c6aa	0.052435555
225	0xbd4c3be7	-0.049861815
226	0xbdf76b42	-0.12081005
227	0x3d262afa	0.04056833
228	0xbc82e6d5	-0.01597921
229	0xbe0dbca7	-0.13841496
230	0x3daea519	0.08527584
231	0x3e047f0b	0.12939088
232	0xbd457652	-0.048208542
233	0x3dc8fba9	0.09813625
234	0xbbd9d755	-0.006647984
235	0x3d53a97d	0.05167531
236	0xbd2ee66b	-0.042700212
237	0xbe241296	-0.16022715
238	0x3d165a1d	0.036707032
239	0xbd0c12c9	-0.034197602
240	0x3db9bd79	0.09069342
241	0x3c843c36	0.016141992
242	0x3c928ffa	0.017890919
243	0x3d155d76	0.036466084
244	0xbd6e88fc	-0.058236107
245	0x3dbb8e97	0.09158056
246	0x3dab7b85	0.08373169
247	0xbe57812c	-0.21045369
248	0xbe392676	-0.18081078
249	0x3d549b11	0.051905695
250	0x3d5657b4	0.052329734
251	0x3d6927f4	0.056922868
252	0xbd3a4e2a	-0.0454847
253	0x3c7683b3	0.015046048
254	0x3d0f96b1	0.03505582
255	0x3be33292	0.0069335187

network_body._body_endoder.seq_layers.0.bias f4 [256]
0	0x3ca188be	0.019718524
1	0x3c58d9ca	0.013235519
2	0xbbd387ce	-0.006455398
3	0x3ca0ced1	0.019629868
4	0xbcb1cb08	-0.021703258
5	0xbb762d40	-0.0037563592
6	0x3cada82e	0.021198358
7	0xba07cdae	-0.000518049
8	0xbb8c1f41	-0.0042761867
9	0xbcbba7b4	-0.022907116
10	0xbc3938e6	-0.01130507
11	0xb73ac708	-1.11328045e-05
12	0x3ac153b9	0.0014749683
13	0x3b8142eb	0.003944745
14	0x3ab84942	0.0014059918
15	0x3af04476	0.001833095
16	0x3b9aac3e	0.00472024
17	0x3abbec12	0.0014337322
18	0xb9848f80	-0.00025283918
19	0x3bab6804	0.0052309055
20	0xbbb24092	-0.0054398263
21	0x3a489a1a	0.00076523575
22	0x3b05bd28	0.0020406935
23	0x3ccfc7ca	0.025363822
24	0x3c3388af	0.010957881
25	0xbca78dfc	-0.020453446
26	0xbc3fc5dd	-0.011704889
27	0x3c5a8997	0.013338468
28	0x3cdd599a	0.027020264
29	0x3c0b653e	0.008508025
30	0x3b124808	0.0022320766
31	0x3c543bdb	0.012953724
32	0x3bb9ae04	0.005666496
33	0x39e7922e	0.00044168666
34	0x3c2edfc0	0.010673463
35	0xbc923fb1	-0.017852636
36	0x3c10b06a	0.008831123
37	0x3ce85494	0.028360642
38	0x3c69dcf3	0.01427387
39	0xbc027db6	-0.007964542
40	0x3cb34202	0.02188206
41	0xbc3a55d0	-0.011372998
42	0x3c8f24a0	0.017473519
43	0x3ba5ff92	0.0050658667
44	0x3c3e4bb5	0.01161473
45	0x3ba741ff	0.005104303
46	0x3bec019c	0.0072023403
47	0xbcd65c83	-0.02616716
48	0x3ccec11b	0.025238564
49	0x3c9356de	0.017985757
50	0x3c0fd5df	0.008779018
51	0xbbac3993	-0.005255887
52	0x3c705eee	0.0146710705
53	0x3c46f570	0.012143478
54	0xbc21215e	-0.0098346155
55	0x3c16e6a0	0.009210259
56	0xbc2c12ef	-0.010502561
57	0x3d18d0fd	0.03730868
58	0xbcdc7593	-0.026911533
59	0x3bcca121	0.006244794
60	0xbc423bfc	-0.011855122
61	0x3b839cf4	0.004016513
62	0xbc03ca4b	-0.008043836
63	0x3b801400	0.003908634
64	0xbbd76695	-0.006573508
65	0x3b97fb06	0.0046380786
66	0x3c8810d3	0.016609585
67	0x398620b3	0.00025582834
68	0x3c78e395	0.015190979
69	0x3ce10ec4	0.027472861
70	0xbc831c01	-0.016004564
71	0x3ca54896	0.020176213
72	0x3c905777	0.017619831
73	0x3c97f068	0.018547252
74	0x3cbac173	0.022797322
75	0xbb53821c	-0.0032273596
76	0x3cb0ca39	0.021580802
77	0xbbf20ef5	-0.007387037
78	0x3b1e0923	0.0024114333
79	0x3c20e01d	0.009819058
80	0x3c968160	0.018372238
81	0x3cb0937a	0.021554697
82	0x3caff3b5	0.021478513
83	0x3cd8c49b	0.026460936
84	0xbca917f6	-0.020641308
85	0x3bb0aa83	0.0053914203
86	0xbb0b6104	-0.0021267543
87	0x3b60437b	0.003421991
88	0xbd0bae98	-0.034102052
89	0xba28d0d0	-0.0006439807
90	0x3c576fa3	0.013149175
91	0x3a7ec330	0.0009718416
92	0xbba43d67	-0.0050122025
93	0xbc799748	-0.015233822
94	0x3c48ea3a	0.012262875
95	0x3c5a2f62	0.013316961
96	0xbbafd526	-0.0053659854
97	0x3c2a6a47	0.010401315
98	0x3b8da893	0.004323074
99	0x3bb5bc5f	0.005546137
100	0xb93227c8	-0.00016990223
101	0xbcaad422	-0.020853106
102	0x3b3debd9	0.0028979687
103	0x3c936797	0.017993731
104	0x3c0ead03	0.008708241
105	0x3bee9523	0.007280962
106	0xbcb54039	-0.02212535
107	0x3c5e1e80	0.013557076
108	0xbc43f03f	-0.011959135
109	0x3c15ea15	0.009150048
110	0xbae77269	-0.0017657998
111	0x3b6700ab	0.00352482
112	0x3cbcebf1	0.023061724
113	0x3ba3879a	0.00499053
114	0x3c03456c	0.008012157
115	0xbc57e6e5	-0.013177608
116	0x3c4e0b97	0.012576005
117	0x3ba0fce9	0.0049129617
118	0xbcb4e34a	-0.022081036
119	0x3c852bf9	0.01625632
120	0x3bc3cf98	0.005975675
121	0x3bc62048	0.0060463287
122	0xbc1e0bd1	-0.009646372
123	0x3c0dbea5	0.00865141
124	0x3c16d51f	0.0092060855
125	0x3b4daf6a	0.0031385073
126	0x3cdb524d	0.026772643
127	0xbc23985f	-0.009985059
128	0x3b1e8b3a	0.0024191872
129	0x3c6cea9a	0.01446023
130	0x3c7cb208	0.015423305
131	0x3bf899c0	0.007586688
132	0xbc767078	-0.015041463
133	0xbac0f20b	-0.0014720572
134	0xbc300a71	-0.010744677
135	0x3a1c04dc	0.0005951652
136	0x3ce6b213	0.028161084
137	0xbb86aa67	-0.004109669
138	0x3bdc5f84	0.0067252535
139	0x3be343df	0.006935581
140	0x3c48c45f	0.01225385
141	0xbc062684	-0.008187894
142	0xbb83fa69	-0.004027654
143	0x3c4296e4	0.011876795
144	0xbc38bb4e	-0.011275126
145	0xbd0862fd	-0.033297528
146	0xbbadd32c	-0.0053047147
147	0xbcb829e5	-0.022480914
148	0x3c97e0a2	0.01853973
149	0xbb953fc5	-0.004554721
150	0xbaefb1b5	-0.0018287214
151	0x3c3469cb	0.011011551
152	0x3b687aa2	0.0035473485
153	0x3af6551c	0.0018793675
154	0xbb623ec7	-0.0034522281
155	0xbb0b8c77	-0.002129344
156	0x3c0b79c1	0.008512915
157	0x3b80bbc5	0.003928634
158	0xbc49d07a	-0.012317771
159	0xbcc7df27	-0.0243984
160	0x3bae52f0	0.0053199455
161	0x3b4f960a	0.0031675124
162	0xbc680936	-0.014162352
163	0x3ca2f270	0.019890994
164	0x3b5c7f62	0.0033645262
165	0xbcb31d17	-0.021864457
166	0xbc91f749	-0.01781811
167	0xbb85a2ca	-0.004078244
168	0x3c3dbf94	0.01158132
169	0x3bdede5c	0.0068014096
170	0x3c17f864	0.0092755295
171	0xbad56048	-0.0016279304
172	0x3c8eb07e	0.017418142
173	0xbb2d3a21	-0.0026432353
174	0xbc9212b0	-0.017831177
175	0x3a55ad5a	0.00081511366
176	0x3c98703e	0.018608209
177	0x3a3a87ad	0.0007115554
178	0x3b0bb475	0.0021317278
179	0x3cfeefc2	0.031120185
180	0x3caf5c03	0.02140618
181	0x3c8ae2d8	0.01695387
182	0x3c4c47b3	0.012468266
183	0x3ba164fc	0.0049253684
184	0xbbe65601	-0.0070292954
185	0x3ca4395f	0.020046888
186	0x3b9d57e3	0.0048017367
187	0x3c7bb34d	0.015362573
188	0x3bebbe31	0.0071943034
189	0xbc69e228	-0.014275111
190	0xbc80e6d3	-0.015735066
191	0x3ccfd12e	0.0253683
192	0x3b86ed4d	0.004117644
193	0x3b1b23a9	0.0023672378
194	0x3c419c36	0.011817029
195	0xbb7680e7	-0.0037613453
196	0xbc390e4c	-0.011294913
197	0x3bcf3184	0.0063230414
198	0xbb8d2c00	-0.0043082237
199	0xbcb91641	-0.02259362
200	0x3c3bc4cf	0.011460497
201	0xbbb6139c	-0.005556537
202	0x3d2603f8	0.04053113
203	0x3c1132f0	0.008862242
204	0xba0fea1b	-0.00054899015
205	0xb94e84ee	-0.00019695211
206	0x3ce56007	0.027999891
207	0x3c852747	0.01625408
208	0x3cbe80d9	0.023254799
209	0xbb986bb7	-0.0046515125
210	0x3c38e6bb	0.011285479
211	0x3b194131	0.0023384804
212	0xbc1b42e1	-0.009476394
213	0xbc47dfaf	-0.012199326
214	0xbc007781	-0.007840992
215	0xba346ce8	-0.00068826834
216	0x3cb70654	0.022341885
217	0xbb533789	-0.0032229146
218	0x3caca479	0.02107452
219	0x3c2a3faa	0.010391155
220	0x3c72ff98	0.014831446
221	0xbca40fe7	-0.020027114
222	0x3ca52ee1	0.020163955
223	0x3baf2180	0.0053445697
224	0x3c8505ba	0.016238082
225	0xbc02f5e8	-0.007993199
226	0x3c61243c	0.013741549
227	0xbca6faf2	-0.020383332
228	0xbbcbb8c1	-0.0062170927
229	0xbbee1928	-0.0072661825
230	0xbc5d87c2	-0.013521137
231	0x3caf40d9	0.021393226
232	0x3c97287c	0.018451922
233	0x3ca986f2	0.02069423
234	0xbca1da20	-0.01975733
235	0xbb65032f	-0.0034944525
236	0xbc5144d6	-0.012772759
237	0xbcebcbee	-0.028783765
238	0x3bda4095	0.006660531
239	0xbbd32851	-0.006444015
240	0x3bf71be8	0.0075411685
241	0x3b21c7df	0.0024685783
242	0x3b238cc4	0.002495573
243	0x3b8d4de2	0.004312263
244	0x3c4d62a7	0.012535728
245	0xbc3a6523	-0.011376652
246	0xbb3c532a	-0.0028736093
247	0x3ca5b524	0.020227976
248	0xbbf06a1b	-0.0073368675
249	0x3b96e8be	0.0046053817
250	0x3cc55247	0.024087084
251	0xbb5eb1e3	-0.003398054
252	0x3c05230d	0.008126033
253	0xbc014f64	-0.007892463
254	0x3c95951f	0.018259583
255	0x3afebc68	0.0019434812

network_body._body_endoder.seq_layers.2.weight f4 [256, 256]
0	0xbd5be226	-0.05368247
1	0xbc65e844	-0.014032427
2	0x3e19fcad	0.15037794
3	0x3d85b10e	0.06527911
4	0x3cdcf8b0	0.026974052
5	0x3da124c4	0.078683406
6	0xbd8fb0f5	-0.07016174
7	0x3da0ca0e	0.07851039
8	0xbc4add42	-0.012381854
9	0x3ca426ca	0.020038027
10	0x3dceb15c	0.10092422
11	0xbd794473	-0.060856294
12	0xbd2b8239	-0.041872237
13	0xbc5b2e02	-0.013377668
14	0xbdc9c6a8	-0.09852344
15	0xbe0ef872	-0.13961962
16	0x3d39cb58	0.04535994
17	0x3d8464a0	0.06464505
18	0x3cda4d97	0.026648326
19	0xbcb07cd8	-0.021543905
20	0xbda06137	-0.07831042
21	0xbcc869fa	-0.024464596
22	0x3d5396d9	0.05165753
23	0x3d576124	0.052582875
24	0x3cd009dc	0.025395326
25	0xbcdb5e6e	-0.026778426
26	0x3bff926d	0.0077994377
27	0x3dc6e83e	0.097122654
28	0xbe163057	-0.14666878
29	0x3d21b65e	0.03948056
30	0xbcfd6dfd	-0.030936236
31	0x3e6c2743	0.23061852
32	0x3d59afc5	0.053146143
33	0xbc053802	-0.008131029
34	0x3de29fcf	0.11065637
35	0xbd84cc5e	-0.064842924
36	0x3d937276	0.07199566
37	0xbd8a1a63	-0.06743314
38	0xbda79ba6	-0.081839845
39	0xbbc50b15	-0.006013284
40	0x3d24666b	0.040136736
41	0x3cb3daaa	0.021954853
42	0xbd89f068	-0.06735307
43	0xbd31b172	-0.043382116
44	0xbd04e3b2	-0.03244371
45	0x3b2b73f8	0.0026161652
46	0x3cb6cdad	0.02231487
47	0x3d534e92	0.051588602
48	0x3daa4588	0.08314043
49	0xbd73408a	-0.05938772
50	0xbdbf4967	-0.09340172
51	0xbd33a898	-0.043861955
52	0x3dcb5feb	0.09930404
53	0xbcf59d33	-0.029982185
54	0x3d685655	0.056722958
55	0x3d15419f	0.036439534
56	0x3b9c3139	0.00476661
57	0xbdadef8e	-0.08492957
58	0xbd969c95	-0.073540844
59	0x3c9c64d5	0.01909105
60	0xbd0688fd	-0.032845486
61	0xbe872265	-0.26393428
62	0xbda66854	-0.08125368
63	0x3cb8c060	0.022552669
64	0xbe233da7	-0.15941487
65	0xbb7ae6ee	-0.0038284617
66	0xbdecfcce	-0.11571656
67	0xba26d7c8	-0.00063645514
68	0xbcab94ec	-0.020945035
69	0xbd57c3db	-0.052677017
70	0xbcf9e5bb	-0.030505052
71	0xbe1acc88	-0.15117085
72	0x3a538a0a	0.00080695807
73	0xbda55957	-0.08073681
74	0xbd0955fd	-0.03352927
75	0x3e0c5eae	0.13707992
76	0xbd4951e6	-0.04915037
77	0xbd986c3c	-0.07442519
78	0xbd0edf18	-0.034880728
79	0xbde29457	-0.1106345
80	0x3c51ab44	0.012797181
81	0x3c0a6290	0.008446351
82	0xbb77708c	-0.0037756292
83	0x3d1b031e	0.03784477
84	0x3d5dbe1b	0.054136377
85	0xbda4bb84	-0.08043578
86	0x3e25d842	0.16195777
87	0xbd13ad84	-0.03605415
88	0x3d8ae9da	0.06782885
89	0x3d849de4	0.06475428
90	0x3d1e5374	0.038653806
91	0xbcca8e63	-0.024726098
92	0x3d133bd3	0.035945725
93	0x3bf1d93e	0.0073806336
94	0x3c414be9	0.011797884
95	0x3d5e9cc0	0.054348707
96	0xbcc221bc	-0.023697726
97	0xbdeee54b	-0.11664828
98	0xbca91a1c	-0.020642333
99	0xbd6609f5	-0.05616184
100	0x3d3f989c	0.0467764
101	0x3cdabed3	0.02670232
102	0xbbe43fb8	-0.0069656037
103	0xbdd80ded	-0.10549531
104	0xbda418d9	-0.08012552
105	0x3d131c6b	0.035915773
106	0x3e290496	0.16505656
107	0x3daf2526	0.085520074
108	0xbdaafd1c	-0.08349058
109	0xbd0e7bd9	-0.03478608
110	0x3c82eeba	0.015982974
111	0xbd406b2b	-0.046977203
112	0x3d919498	0.0710842
113	0x3d441fce	0.047881894
114	0xbd5e2c93	-0.054241728
115	0xbbe10520	-0.006867066
116	0x3c9b66e7	0.018969966
117	0xbdd26a3c	-0.10274169
118	0x3e341dda	0.17589512
119	0x3e0ba0b3	0.1363552
120	0xbd52ee4b	-0.051496785
121	0x3d9545e6	0.07288723
122	0x3d8d008c	0.0688487
123	0x3d9f9a34	0.07793084
124	0x3ac72196	0.0015192505
125	0xbdad9e51	-0.08477462
126	0xbcefe2d1	-0.02928296
127	0x3d9930eb	0.074800335
128	0x3d8fda3b	0.07024046
129	0x3dce57ea	0.10075362
130	0xbc87ce69	-0.016577916
131	0xbc69f862	-0.0142804105
132	0x3a968c6a	0.0011485938
133	0x3cf87f61	0.030334176
134	0x3ddea47e	0.10871218
135	0xbc10ab03	-0.008829835
136	0x3b4f52e9	0.0031635112
137	0x3dbb4ce0	0.09145522
138	0x3e035252	0.12824371
139	0xbd9ee057	-0.07757633
140	0x3d184d58	0.037183136
141	0x3d54b99e	0.05193483
142	0xbca4c3db	-0.020112922
143	0x3d29146d	0.041279245
144	0xbd2b9d48	-0.041898042
145	0xb8965ed2	-7.170219e-05
146	0x3d4e011c	0.050294027
147	0x3c50507e	0.012714503
148	0xbd379494	-0.04481943
149	0xbc86d9b1	-0.016461225
150	0xbe15cb82	-0.14628413
151	0xbdd473f0	-0.10373676
152	0xbd115dcc	-0.035489842
153	0xbcea8a57	-0.028630419
154	0xbdc868a1	-0.097855814
155	0xbcf6d0a3	-0.030128783
156	0xbc9b0c99	-0.018926905
157	0xbd2aef5b	-0.041732173
158	0x3de0f587	0.109843306
159	0x3dd2dcdc	0.10296032
160	0xbd3aeeeb	-0.045638006
161	0xbd58e663	-0.05295409
162	0xbddef2fb	-0.108861886
163	0x3ca6d025	0.020362923
164	0x3c50f90f	0.012754693
165	0xbc8159d2	-0.0157899
166	0xbbec386d	-0.007208875
167	0x3dab6a63	0.08369901
168	0x3d50d4ba	0.05098412
169	0x3d0fb0d9	0.035080764
170	0x3bbb1dd5	0.0057103434
171	0xbd225d01	-0.039639477
172	0xbd8e5515	-0.06949822
173	0x3dadc505	0.08484844
174	0x3d8b9c57	0.06816929
175	0x3d71f870	0.05907482
176	0xbabe62d5	-0.0014525304
177	0x3c9a4747	0.018832816
178	0xbe0fcb7d	-0.14042468
179	0xbd890f6a	-0.06692393
180	0x3d23a147	0.039948728
181	0xbe458c10	-0.19291711
182	0xbe08a89b	-0.13345568
183	0xbd0527fb	-0.03250883
184	0x3b336b15	0.0027377058
185	0xbdf78e2b	-0.12087663
186	0x3d06bc88	0.03289464
187	0xbd916338	-0.070990026
188	0xbccec425	-0.025240013
189	0xbca25b3b	-0.019818893
190	0x3ca19280	0.019723177
191	0xbca4ba6f	-0.02010843
192	0xbde540b6	-0.11193983
193	0xbdfd95c6	-0.12382083
194	0x3db3e0a5	0.08783082
195	0x3d1dc8b9	0.038521502
196	0x3d41ae3c	0.047285303
197	0xbd6a9830	-0.057274044
198	0x3d939d89	0.07207782
199	0x3d086df0	0.03330797
200	0xbda01234	-0.07815972
201	0x3d9194e7	0.07108479
202	0xbda59b8b	-0.08086308
203	0x3dec94a9	0.11551792
204	0xbc73f652	-0.01489027
205	0x3e4177af	0.18893312
206	0xbdbc9687	-0.09208398
207	0xbd3819de	-0.044946544
208	0x3c0d180f	0.008611693
209	0x3e34cbc0	0.1765585
210	0x3cfb3dd2	0.030669127
211	0xbbbdb53f	-0.0057894285
212	0xbdf66d22	-0.12032534
213	0xbd9f1dae	-0.07769333
214	0xbd187809	-0.03722385
215	0xbd0d0814	-0.034431532
216	0x3d0c6438	0.034275264
217	0x3c694711	0.014238135
218	0xbd6323b4	-0.05545397
219	0xbd671486	-0.056416057
220	0xbd308091	-0.04309136
221	0x3cd2ef52	0.025748882
222	0x3cde6e18	0.027152106
223	0x3d07c3b0	0.033145607
224	0xbd4892d1	-0.04896814
225	0x3d0f4775	0.034980256
226	0xbd291228	-0.04127708
227	0x3da97e2d	0.08276019
228	0xbd2bf486	-0.041981243
229	0xbd53e2a6	-0.05172982
230	0xbcd2b542	-0.025721196
231	0x3cd5f388	0.026117101
232	0xbcdafb9d	-0.026731307
233	0x3df6df5f	0.120543234
234	0xbd1fbf22	-0.039000638
235	0x3dc03732	0.09385528
236	0x3dc6ec23	0.09713008
237	0xbd43f5eb	-0.047841948
238	0xbb97c9bd	-0.0046322034
239	0xbccb820b	-0.024842283
240	0xbd893b10	-0.067007184
241	0xbdded7c6	-0.10880999
242	0xbd4c1ea9	-0.049833927
243	0x3c4e098d	0.012575519
244	0x39f14424	0.0004601787
245	0x3dbff272	0.09372415
246	0x3cbb9045	0.022895942
247	0x3d498f90	0.049209177
248	0xbdd32dc7	-0.10311466
249	0x3ccbef6e	0.024894442
250	0x3d6a64b9	0.057224963
251	0xbd8a9940	-0.06767511
252	0xbb2d26d6	-0.0026420853
253	0x3d440fb7	0.04786655
254	0x3d8f77e5	0.0700529
255	0xbc838bc2	-0.016057853

network_body._body_endoder.seq_layers.2.bias f4 [256]
0	0x3badac2f	0.005300067
1	0xbb5c3044	-0.0033598104
2	0x3c02d6a3	0.007985744
3	0xbb4ae5e2	-0.0030959775
4	0x3c0a3841	0.008436264
5	0x3a1cb3cf	0.00059777213
6	0xbbe4d3cc	-0.006983256
7	0x3a0d1dca	0.0005383162
8	0x3c3f7d02	0.011687519
9	0xbbbc7cff	-0.0057522054
10	0x3ad4aa7d	0.0016225126
11	0xbbe4cd1e	-0.0069824597
12	0x3c4a95a6	0.0123647805
13	0x3c543a3e	0.012953339
14	0x3cc530bb	0.024071088
15	0x3c0067bb	0.007837231
16	0xbb349ade	-0.0027558128
17	0xb99db84a	-0.0003008268
18	0x3c01567f	0.007894157
19	0x3bc06776	0.0058717085
20	0x3c04c34a	0.008103201
21	0x3be7c749	0.007073317
22	0xbc00b8ec	-0.007856589
23	0xbb71911b	-0.0036860171
24	0x3b72fdfd	0.0037077658
25	0x3b55a2bb	0.0032598216
26	0x3cf15d01	0.029463293
27	0xbbc1269e	-0.005894496
28	0x3c84741d	0.016168648
29	0x3af0702a	0.0018343974
30	0x3cffbbce	0.031217482
31	0x3b4521ca	0.0030079954
32	0x3bc1129e	0.005892112
33	0x3bef7381	0.0073074703
34	0x3b9562ff	0.0045589204
35	0xbc0a7df1	-0.008452878
36	0x3b8de372	0.004330092
37	0x3c48d9e4	0.01225898
38	0x3c447029	0.011989632
39	0xbba3a7af	-0.0049943547
40	0x3b85f0f5	0.004087562
41	0x3aa46044	0.0012540896
42	0x3c4fe882	0.0126897115
43	0xbb711f6f	-0.0036792418
44	0x3c25713e	0.0100978
45	0x3c4a0d6f	0.012332304
46	0x3cc70058	0.024292156
47	0x3b00fd6c	0.0019682301
48	0x3c798f5b	0.0152319325
49	0x3c6c47b2	0.01442139
50	0xbc03a96d	-0.008036
51	0xbc384701	-0.011247397
52	0x3c986a13	0.018605268
53	0x3c188c16	0.009310743
54	0xbbe62c90	-0.007024355
55	0x3b977c94	0.004623005
56	0x3bac4db1	0.005258285
57	0x3ba7088c	0.0050974544
58	0x3bec9463	0.0072198375
59	0x3be40cad	0.006959519
60	0x3bfdcbf5	0.007745261
61	0xbbb4c017	-0.005516063
62	0x3c1ae567	0.009454108
63	0xbc53919d	-0.012913135
64	0x3c88403a	0.016632188
65	0x3c79cc8d	0.015246523
66	0x3c069700	0.008214712
67	0x3c39dbaa	0.011343876
68	0x3b5e2351	0.0033895562
69	0x3ca1c4de	0.019747194
70	0xb9bdd37c	-0.00036206457
71	0xbc31781d	-0.01083186
72	0x3c150ef6	0.009097805
73	0xbaf36717	-0.0018570152
74	0x3c9a9ef5	0.018874625
75	0xbb41da2d	-0.0029579506
76	0x3cc402f8	0.023927197
77	0x3c69c908	0.014269121
78	0x3c75c0e8	0.014999606
79	0xbb5ec4cf	-0.0033991819
80	0x3c52c5ea	0.012864569
81	0x3a954e91	0.0011391212
82	0x3b4bdb43	0.0031106032
83	0x3c0c179b	0.00855055
84	0x3b832614	0.004002342
85	0x3b1cdc95	0.0023935188
86	0x3bc586d2	0.0060280347
87	0x3b0025e6	0.001955384
88	0x3bd40579	0.006470379
89	0x3cad46d2	0.021151934
90	0x3cf2ad66	0.029623698
91	0xbaed643b	-0.0018111536
92	0x3bd00e6c	0.0063493755
93	0x3b8a7f25	0.0042265826
94	0x3c650d3f	0.013980209
95	0xbb9bf51f	-0.0047594453
96	0x3c992af7	0.018697245
97	0xba17ad43	-0.0005786011
98	0x3be4ba3b	0.006980208
99	0x3b04963f	0.0020231155
100	0xbc9bf1c7	-0.019036187
101	0x3bea3ecc	0.0071485993
102	0xbc1ed40c	-0.009694111
103	0x3ce037ff	0.027370451
104	0x3c7ba6a9	0.015359559
105	0x3b25a387	0.0025274472
106	0x3c629314	0.0138290115
107	0x3bfe9f09	0.0077704233
108	0xbb7b3dc2	-0.003833637
109	0xbba4a377	-0.0050243693
110	0xbba234c7	-0.004950139
111	0x3c7fe752	0.015619116
112	0x3bfc6716	0.0077027185
113	0x3cb625b3	0.022234773
114	0x3c9101be	0.017701026
115	0xbb05732f	-0.0020362844
116	0x3c11ebee	0.008906348
117	0x3c190335	0.0093391435
118	0x3b3bf3af	0.0028679182
119	0x3bf42e65	0.0074518197
120	0x3c11734e	0.008877588
121	0x3cd0e111	0.025497945
122	0xbafb430a	-0.001916976
123	0x3c95ea84	0.018300302
124	0x3c8ee003	0.017440801
125	0x3c4dea50	0.0125680715
126	0xbbd268ba	-0.006421176
127	0xbbcbe53c	-0.006222395
128	0x3c43aadd	0.011942592
129	0x3ac9d18d	0.0015397534
130	0xbc4eb2ce	-0.012615873
131	0x3c6695b0	0.014073774
132	0xbc18529c	-0.009297039
133	0xbaaf7627	-0.0013386653
134	0x3c454b30	0.012041852
135	0x3c813b16	0.015775245
136	0x3bbd417c	0.0057756286
137	0x3c5a748c	0.013333451
138	0xbbda1f6a	-0.006656577
139	0x3cd9641a	0.02653699
140	0xbb41a5bd	-0.002954825
141	0x3c5370ae	0.012905283
142	0x3c8fef79	0.017570244
143	0x3c66531b	0.0140579
144	0x3c0d2d7b	0.0086168
145	0x398176f8	0.00024693436
146	0x3a814b3d	0.0009864342
147	0x3c1ab994	0.009443659
148	0x3c141e31	0.009040401
149	0xbbe3b76b	-0.0069493554
150	0x3aedb620	0.0018135943
151	0xbc00114f	-0.007816627
152	0x3c591e80	0.013251901
153	0x3c058348	0.008148976
154	0x3c8e7ba3	0.017392939
155	0xbaeafbfa	-0.0017927878
156	0x3c4629c9	0.012094923
157	0x3c3d77e4	0.011564229
158	0x3cee2642	0.029070977
159	0xbc472362	-0.012154432
160	0x3bcc1a21	0.0062287007
161	0x3b94c486	0.004540029
162	0x3b8355f8	0.004008051
163	0x3c36714c	0.0111354105
164	0xbb7b13ee	-0.003831144
165	0x3c963a9f	0.0183385
166	0x3c8e6ecd	0.017386818
167	0x3bb8c873	0.00563913
168	0xbc3400c1	-0.010986508
169	0x3c6af5d9	0.014340841
170	0x3c5308d0	0.012880519
171	0x3be67eda	0.007034165
172	0x3b6fa7b9	0.0036568476
173	0x3aa96466	0.0012923598
174	0x3c007fb6	0.007842949
175	0x3c9f323c	0.019433133
176	0xbc2d7e81	-0.010589243
177	0xbc562ea6	-0.013072645
178	0x390acd0f	0.00013237096
179	0xbbd5d28d	-0.0065253437
180	0xbac46db0	-0.0014986303
181	0xbc9d8f08	-0.019233242
182	0xbc038ecb	-0.00802965
183	0x3c492daf	0.012278958
184	0x3cb18459	0.021669554
185	0x3c500e6d	0.012698752
186	0x39c47aed	0.0003747562
187	0xbb56a5b5	-0.0032752578
188	0xbc0bf252	-0.00854166
189	0x3c64cb7d	0.013964531
190	0xbbd0029e	-0.0063479682
191	0x3c9d9fd8	0.019241259
192	0x3bff0de6	0.0077836392
193	0x3c17b204	0.009258751
194	0x3bf1576a	0.007365157
195	0x3c17c6eb	0.009263734
196	0xbbc042b6	-0.0058673276
197	0x3b25ae04	0.0025280723
198	0x3c92398f	0.017849712
199	0xbb22c637	-0.0024837384
200	0x3c5ff7de	0.013669936
201	0x3b99c6a1	0.004692868
202	0xbbdf4ba5	-0.0068144375
203	0x3c2dcab9	0.010607415
204	0x3c9662df	0.018357692
205	0x3b65cd98	0.003506517
206	0x3c50b077	0.012737385
207	0x3c488869	0.012239554
208	0x3c41cc7f	0.011828541
209	0x3c42e860	0.011896223
210	0x3b70daa3	0.0036751411
211	0x3c6801ce	0.0141605865
212	0x3c845e56	0.016158264
213	0x38bcb5ed	8.998425e-05
214	0x3c25a26a	0.010109523
215	0x3c84c93d	0.01620924
216	0x3b25a155	0.0025273163
217	0x3c4ae222	0.012383016
218	0x3ca37b81	0.019956352
219	0x3cc93b23	0.024564331
220	0xbbb04e8f	-0.0053804587
221	0xbaa8a7c7	-0.0012867384
222	0x397fe08b	0.00024402344
223	0x3bfde9de	0.0077488264
224	0x3bef3122	0.0072995583
225	0x3c6ffca0	0.014647633
226	0x3bf2a791	0.0074052294
227	0xbaecd032	-0.0018067418
228	0x3c67dfc8	0.014152475
229	0x3c3d8709	0.011567839
230	0x3bacae5c	0.0052698087
231	0x3b986456	0.004650633
232	0x3c8e0668	0.01733704
233	0x3c5ea109	0.013588198
234	0x3c0a1742	0.008428397
235	0x3c069935	0.008215238
236	0x3c7b66ea	0.015344361
237	0x3c15a903	0.009134534
238	0x39c23c18	0.00037047337
239	0x3c3981e5	0.011322473
240	0x3b71784c	0.0036845384
241	0x3c01dcfc	0.007926222
242	0xbb96592c	-0.004588267
243	0xbbfc433d	-0.007698445
244	0xbba4d4ad	-0.0050302357
245	0x3bd915cd	0.0066249133
246	0x39dfc661	0.00042681678
247	0xbb64382f	-0.0034823527
248	0x3c651c89	0.013983854
249	0x3c2996d0	0.010350898
250	0xba32866a	-0.00068101904
251	0x3c456d80	0.012050033
252	0xba787d0c	-0.00094790827
253	0xbb8bdd8b	-0.0042683533
254	0x3b8c8270	0.0042880103
255	0xbc5b8227	-0.01339773

action_model._continuous_distribution.log_sigma f4 [1, 2]
0	0xbf70607f	-0.9389724
1	0xbf6ed274	-0.93289876

action_model._continuous_distribution.mu.weight f4 [2, 256]
0	0xbc046b4f	-0.008082225
1	0x3d21126b	0.039324205
2	0x3d51dce7	0.05123606
3	0xbc69c79d	-0.014268783
4	0xbd1a4501	-0.037663464
5	0xbd518ec8	-0.051161557
6	0xbc58d051	-0.01323326
7	0x3b836888	0.004010264
8	0x3d61f653	0.055166554
9	0x3c969056	0.018379372
10	0x3d259f9e	0.040435426
11	0x3d27d2fe	0.040972702
12	0xbd8a6ef3	-0.06759443
13	0xbd905a64	-0.07048491
14	0xbd93ec1d	-0.072227694
15	0xbdac52be	-0.08414219
16	0x3cf0830a	0.02935936
17	0x3cf56011	0.029953035
18	0xbcc1447d	-0.023592228
19	0x3d2e5690	0.04256302
20	0xbcf3b21f	-0.02974802
21	0x3d312f12	0.04325778
22	0x3c90412f	0.017609207
23	0xbc09d7d7	-0.008413277
24	0x3c81cab4	0.015843727
25	0x39ecbbbe	0.00045153307
26	0xbd1a1b61	-0.037623767
27	0x3d0f6800	0.03501129
28	0xbd225405	-0.03963091
29	0x3d186956	0.03720983
30	0xbd2c307e	-0.042038433
31	0x3d834d57	0.06411236
32	0xbd422258	-0.047396034
33	0xbd618506	-0.0550585
34	0x3d72e909	0.05930427
35	0x3ccf6ba2	0.025319878
36	0xbd1814b8	-0.037129134
37	0xbd10edcc	-0.03538303
38	0xbd2a243b	-0.04153846
39	0x3d2cc9be	0.042184584
40	0x3d506066	0.050873183
41	0xbc3a8c16	-0.011385938
42	0xbd9d3759	-0.07676572
43	0x3ca63038	0.020286664
44	0xbd7ba43e	-0.06143593
45	0xbd110d31	-0.03541297
46	0xbd44989c	-0.047997102
47	0x3d73d8d8	0.05953297
48	0xbd015faa	-0.031585373
49	0xbd3bee7b	-0.04588173
50	0x3cdf2b49	0.02724232
51	0x3c8f1bd2	0.01746932
52	0xbc9ac214	-0.018891372
53	0xbd182fde	-0.037155025
54	0xbbb2d061	-0.0054569696
55	0x3d172228	0.03689781
56	0xbbdd05db	-0.006745083
57	0xba174e5b	-0.0005771869
58	0x3cbe75c2	0.02324951
59	0x3cf02824	0.029316016
60	0x3c3b4468	0.011429884
61	0x3d43ad22	0.047772534
62	0x3d420685	0.0473695
63	0x3c236a43	0.009974065
64	0x3db478c9	0.088121004
65	0x3c02e59d	0.007989314
66	0x3cf83fe7	0.030303909
67	0xbd1eea70	-0.038797796
68	0xbcecfc71	-0.028928967
69	0xbdc85943	-0.0978265
70	0x3c60ea05	0.01372767
71	0x3d64e4c9	0.05588225
72	0xbd949be6	-0.07256298
73	0xbc934c44	-0.017980702
74	0xbdb89fab	-0.09014829
75	0x3ce05853	0.027385866
76	0xbc209793	-0.009801763
77	0xbd6becef	-0.057599004
78	0xbd8edc44	-0.06975606
79	0xbd035f87	-0.032073524
80	0x3c675734	0.014119912
81	0xbdb5a557	-0.08869427
82	0x3d04d323	0.03242792
83	0x3d032826	0.03202071
84	0xbd1d47d3	-0.038398575
85	0x3d7e1ae6	0.06203737
86	0xbcadd793	-0.021220958
87	0x3d832090	0.06402695
88	0xbd3f6886	-0.04673054
89	0xbd8ca986	-0.068682715
90	0xbc228814	-0.009920139
91	0x3cea46fb	0.0285983
92	0xbd162265	-0.036653895
93	0x3d6014fb	0.05470751
94	0xbd5bb1f5	-0.05363651
95	0x3d542e55	0.051802
96	0x3ce479f6	0.027890187
97	0x3bce9236	0.006304051
98	0x3d28a2a0	0.041170716
99	0x3d50dc52	0.050991364
100	0xbb325a1c	-0.0027214354
101	0x3d971062	0.07376172
102	0x3b3b5cbd	0.0028589212
103	0xbdb096c4	-0.08622506
104	0x3bd08603	0.0063636317
105	0x3c43b396	0.011944672
106	0xbd01ca9b	-0.03168736
107	0xbbb4cc7b	-0.00551754
108	0xbd0a12a8	-0.0337092
109	0xbda868b7	-0.08223098
110	0x3d04a29c	0.03238164
111	0x3c8487bc	0.016178004
112	0x3ccfa787	0.025348438
113	0xbd7b5657	-0.061361637
114	0x3d5f8213	0.054567408
115	0x3d46be8c	0.048521563
116	0x3d55dfc6	0.05221536
117	0x3d7a5abb	0.061121684
118	0x3c98a46a	0.018633086
119	0xbd3259f9	-0.043542836
120	0x3d530187	0.05151513
121	0xbdb5eb3a	-0.088827565
122	0x3d27de31	0.040983383
123	0xbda5afd9	-0.08090181
124	0x3ced56e3	0.028972095
125	0xbd783341	-0.060595755
126	0x3c859af1	0.016309233
127	0x3ccd46a3	0.025058096
128	0xbd53dd59	-0.051724765
129	0xbc960408	-0.01831247
130	0x3b8f1bc2	0.0043673227
131	0x3d9f4f8b	0.077788435
132	0x3c621a98	0.013800286
133	0xbd4f5149	-0.05061463
134	0xbc595bfe	-0.013266562
135	0xbdaa4bca	-0.08315237
136	0x3d5580fe	0.05212497
137	0xbd90f407	-0.070777945
138	0xbc24327f	-0.010021805
139	0xbd845a8c	-0.06462583
140	0x3d2cc438	0.042179316
141	0xbb9b495b	-0.0047389693
142	0x3d085dd9	0.033292625
143	0x3be71853	0.00705246
144	0x3c8ef2ac	0.0174497
145	0xbccd99ac	-0.02509769
146	0xbb72340d	-0.0036957294
147	0xbc453c0d	-0.012038243
148	0xbca40b1f	-0.020024834
149	0x3cc554c9	0.02408828
150	0xbd6669d0	-0.056253254
151	0x3cf82b1f	0.030294
152	0x3cb3a564	0.02192945
153	0xbc4405c9	-0.01196427
154	0xbd93baa6	-0.07213335
155	0x3cb61e98	0.022231385
156	0x3d83e852	0.06440796
157	0x3d6a4b0b	0.057200473
158	0xbdd95c6a	-0.1061333
159	0x3bef894e	0.007310069
160	0xbce70999	-0.028202819
161	0xbd11101d	-0.035415757
162	0xbd49763a	-0.049185015
163	0xbd966180	-0.073428154
164	0xbace6998	-0.0015748022
165	0x3af1b42f	0.001844054
166	0x3cee9931	0.029125782
167	0x3d9540c9	0.072877474
168	0x3bfa420f	0.0076372693
169	0xbcd408f2	-0.025883172
170	0xbd856c67	-0.06514817
171	0x3d51ce62	0.051222213
172	0x3d2f6157	0.04281744
173	0x3d01ef41	0.03172231
174	0x3d566a57	0.052347507
175	0x3c448da3	0.011996659
176	0xbb9fad5f	-0.0048729624
177	0xbd3c28ec	-0.045937464
178	0x3d8d0c1f	0.068870775
179	0xbc0cfe70	-0.0086055845
180	0x3d7add4b	0.061246198
181	0xb860a838	-5.3562428e-05
182	0x3c895121	0.016762318
183	0xbd7b6f2f	-0.06138533
184	0xbdab7b0b	-0.08373078
185	0xbc1648ea	-0.0091726575
186	0x3d140921	0.03614152
187	0x3caddb3d	0.021222705
188	0x3cac33d8	0.021020815
189	0x3d202c6b	0.03910486
190	0xbc5f2631	-0.013619945
191	0x3db807d4	0.08985868
192	0x3d4812c8	0.048846036
193	0x3d835501	0.064126976
194	0x3cfd0678	0.030886874
195	0x3d8e333d	0.06943367
196	0x3cbe842b	0.023256382
197	0x3d2b7631	0.041860763
198	0xbdccada2	-0.09994055
199	0xbd032eaf	-0.032026943
200	0x3d4235cb	0.047414582
201	0xbd42b161	-0.047532443
202	0xbc996cb9	-0.0187286
203	0x3ce33d6d	0.027739251
204	0xbd84a930	-0.064775825
205	0x3d06f7c5	0.032951135
206	0x3d9d2216	0.07672517
207	0xbd055a4b	-0.032556813
208	0x3dab8b83	0.08376219
209	0x3d4c753c	0.04991649
210	0xbd39fd42	-0.04540754
211	0x3c072785	0.008249168
212	0xbd6eed8d	-0.058332015
213	0xbc925037	-0.017860515
214	0xbd0e3f02	-0.034728058
215	0xbd8a286a	-0.067459896
216	0x3c59b65d	0.013288108
217	0xbd222e1b	-0.03959475
218	0xbd72296e	-0.05912154
219	0xbd68bc45	-0.056820173
220	0x3c97a84b	0.018512866
221	0x3d57bc50	0.052669823
222	0x3d1261a9	0.035737667
223	0x3ccc149b	0.02491217
224	0x3d441b16	0.047877394
225	0x3c0e4289	0.008682855
226	0x3c27cbc7	0.010241455
227	0x3ccb5c5e	0.024824318
228	0xbcaf3689	-0.02138831
229	0xbce96982	-0.028492693
230	0xbce179d5	-0.027523914
231	0x3d0336bf	0.03203463
232	0x3d8d65c5	0.069041766
233	0xbcceedcc	-0.025259875
234	0xbce8ef35	-0.028434375
235	0xbc99f9c6	-0.018795859
236	0xbc817211	-0.015801461
237	0xbcd60701	-0.026126387
238	0xbbc54258	-0.0060198717
239	0xbd94a373	-0.07257738
240	0x3cff7aa6	0.031186413
241	0xbd702560	-0.058629394
242	0x3d5dbcf8	0.054135293
243	0xbcba5221	-0.02274424
244	0x3d16c830	0.036812007
245	0x3d225e6b	0.039640825
246	0x3c6c2056	0.014412006
247	0x3d4ebb06	0.05047133
248	0xbd89334f	-0.066992395
249	0xbda33cf9	-0.07970614
250	0xbd65fe3c	-0.05615066
251	0xbd5a4743	-0.053290617
252	0xbcc04422	-0.023469988
253	0x3ccd3ed1	0.025054367
254	0xbd1fa596	-0.038976274
255	0xbc2611bb	-0.010136063

action_model._continuous_distribution.mu.bias f4 [2]
0	0xbb9a5294	-0.004709551
1	0xbbe82a2f	-0.007085107

onnx::Div_51 f4 [204]
0	0x3c9900dc	0.018677168
1	0x3cd8c6f1	0.02646205
2	0x3cb1d6c5	0.021708855
3	0x3d06d819	0.03292093
4	0x3ca634c9	0.020288842
5	0x3cab2897	0.020893378
6	0x3cb96fce	0.02263632
7	0x3cc2185f	0.023693262
8	0x3cc6c9ee	0.02426621
9	0x3d010149	0.031495366
10	0x3d529846	0.05141475
11	0x3da3f403	0.08005526
12	0x3d429460	0.047504783
13	0x3d559f97	0.05215415
14	0x3d240b85	0.04005005
15	0x3d2ba983	0.041909706
16	0x3d35bdba	0.04437039
17	0x3d0992e2	0.033587344
18	0x3d3500b2	0.044190116
19	0x3d2c6758	0.042090744
20	0x3daef476	0.08542721
21	0x3e32bb5d	0.17454286
22	0x3e1384ab	0.14406078
23	0x3e001d8c	0.12511271
24	0x3db89a0c	0.09013757
25	0x3d68f332	0.056872554
26	0x3d40d16e	0.047074728
27	0x3d45e64b	0.048315328
28	0x3d4505f8	0.048101395
29	0x3ceced77	0.028921826
30	0x3d193a52	0.037409134
31	0x3d6df79a	0.05809746
32	0x3dc58399	0.09644241
33	0x3ebef96e	0.37299675
34	0x3efef502	0.497963
35	0x3e20dc18	0.15708959
36	0x3d4bddd1	0.049772087
37	0x3d6379c7	0.055536058
38	0x3d6bff04	0.05761625
39	0x3cfd7c8d	0.03094318
40	0x3cbd1edf	0.02308601
41	0x3d246014	0.04013069
42	0x3d42332d	0.047412086
43	0x3e92dd01	0.28684238
44	0x3ecd7919	0.40131453
45	0x3ee25b1f	0.44210145
46	0x3ea8c6ed	0.32964268
47	0x3db99dc8	0.090632975
48	0x3d712d75	0.05888124
49	0x3d256a40	0.04038453
50	0x3cb70455	0.022340933
51	0x3cfdc227	0.030976368
52	0x3d29cb9c	0.041453943
53	0x3d76ad4a	0.060223855
54	0x3d8be543	0.068308376
55	0x3e305d33	0.17223053
56	0x3ea988df	0.33112237
57	0x3e892d36	0.26792306
58	0x3d87b3ce	0.06626092
59	0x3cdab764	0.026698776
60	0x3c95e4e4	0.01829762
61	0x3ce0647b	0.027391663
62	0x3d19c3c8	0.037540227
63	0x3d57b42e	0.052662067
64	0x3d7ea3ff	0.062168118
65	0x3da081b5	0.0783724
66	0x3ddeee54	0.10885301
67	0x3e20a6c0	0.1568861
68	0x3e5b9fd9	0.21447696
69	0x3e5b7156	0.21429953
70	0x3c78a58b	0.015176187
71	0x3ce899e6	0.028393697
72	0x3cfadb41	0.030622127
73	0x3d16530d	0.036700297
74	0x3d2e1b92	0.04250676
75	0x3d802aab	0.06258138
76	0x3da2bba7	0.07945948
77	0x3db1b886	0.08677773
78	0x3e29c3dc	0.1657862
79	0x3e3885cf	0.18019794
80	0x3c57a49c	0.0131618045
81	0x3cee336c	0.029077254
82	0x3ccae766	0.024768542
83	0x3cc444d9	0.02395861
84	0x3d0111b7	0.031511035
85	0x3d1f14da	0.038838245
86	0x3d105965	0.035241503
87	0x3d2e4157	0.04254278
88	0x3d4f2dae	0.050580673
89	0x3d15e90b	0.0365992
90	0x3c426f71	0.01186739
91	0x3c8de467	0.017320825
92	0x3c8770c4	0.016533263
93	0x3ca14f0c	0.019691013
94	0x3cb63b07	0.022244943
95	0x3c946104	0.018112667
96	0x3c8fd7a1	0.017558875
97	0x3cbdd9a1	0.023175063
98	0x3cd00d65	0.025397012
99	0x3ca32c3d	0.019918555
100	0x39a4dd92	0.000314456
101	0x39a4dd92	0.000314456
102	0x39a4dd92	0.000314456
103	0x39a4dd92	0.000314456
104	0x39a4dd92	0.000314456
105	0x39a4dd92	0.000314456
106	0x39a4dd92	0.000314456
107	0x39a4dd92	0.000314456
108	0x39a4dd92	0.000314456
109	0x39a4dd92	0.000314456
110	0x39a4dd92	0.000314456
111	0x39a4dd92	0.000314456
112	0x39a4dd92	0.000314456
113	0x39a4dd92	0.000314456
114	0x39a4dd92	0.000314456
115	0x39a4dd92	0.000314456
116	0x39a4dd92	0.000314456
117	0x39a4dd92	0.000314456
118	0x39a4dd92	0.000314456
119	0x3d2ff96e	0.042962484
120	0x39a4dd92	0.000314456
121	0x39a4dd92	0.000314456
122	0x39a4dd92	0.000314456
123	0x39a4dd92	0.000314456
124	0x39a4dd92	0.000314456
125	0x39a4dd92	0.000314456
126	0x39a4dd92	0.000314456
127	0x39a4dd92	0.000314456
128	0x39a4dd92	0.000314456
129	0x39a4dd92	0.000314456
130	0x39a4dd92	0.000314456
131	0x39a4dd92	0.000314456
132	0x39a4dd92	0.000314456
133	0x39a4dd92	0.000314456
134	0x3eff0539	0.49808672
135	0x39a4dd92	0.000314456
136	0x39a4dd92	0.000314456
137	0x39a4dd92	0.000314456
138	0x39a4dd92	0.000314456
139	0x39a4dd92	0.000314456
140	0x39a4dd92	0.000314456
141	0x39a4dd92	0.000314456
142	0x39a4dd92	0.000314456
143	0x39a4dd92	0.000314456
144	0x39a4dd92	0.000314456
145	0x39a4dd92	0.000314456
146	0x39a4dd92	0.000314456
147	0x39a4dd92	0.000314456
148	0x39a4dd92	0.000314456
149	0x39a4dd92	0.000314456
150	0x39a4dd92	0.000314456
151	0x39a4dd92	0.000314456
152	0x39a4dd92	0.000314456
153	0x39a4dd92	0.000314456
154	0x39a4dd92	0.000314456
155	0x39a4dd92	0.000314456
156	0x39a4dd92	0.000314456
157	0x39a4dd92	0.000314456
158	0x39a4dd92	0.000314456
159	0x39a4dd92	0.000314456
160	0x39a4dd92	0.000314456
161	0x39a4dd92	0.000314456
162	0x39a4dd92	0.000314456
163	0x39a4dd92	0.000314456
164	0x39a4dd92	0.000314456
165	0x39a4dd92	0.000314456
166	0x39a4dd92	0.000314456
167	0x39a4dd92	0.000314456
168	0x39a4dd92	0.000314456
169	0x39a4dd92	0.000314456
170	0x39a4dd92	0.000314456
171	0x39a4dd92	0.000314456
172	0x39a4dd92	0.000314456
173	0x39a4dd92	0.000314456
174	0x39a4dd92	0.000314456
175	0x39a4dd92	0.000314456
176	0x39a4dd92	0.000314456
177	0x39a4dd92	0.000314456
178	0x39a4dd92	0.000314456
179	0x39a4dd92	0.000314456
180	0x39a4dd92	0.000314456
181	0x39a4dd92	0.000314456
182	0x39a4dd92	0.000314456
183	0x39a4dd92	0.000314456
184	0x39a4dd92	0.000314456
185	0x39a4dd92	0.000314456
186	0x39a4dd92	0.000314456
187	0x39a4dd92	0.000314456
188	0x39a4dd92	0.000314456
189	0x39a4dd92	0.000314456
190	0x39a4dd92	0.000314456
191	0x39a4dd92	0.000314456
192	0x39a4dd92	0.000314456
193	0x39a4dd92	0.000314456
194	0x39a4dd92	0.000314456
195	0x39a4dd92	0.000314456
196	0x39a4dd92	0.000314456
197	0x39a4dd92	0.000314456
198	0x39a4dd92	0.000314456
199	0x39a4dd92	0.000314456
200	0x3fa36a6f	1.2766856
201	0x3fe3077a	1.7736657
202	0x39a4dd92	0.000314456
203	0x39a4dd92	0.000314456
