Assets/NN/Pixel 34.onnx (onnx, 482050 bytes, 9 tensors)

network_body.observation_encoder.processors.0.normalizer.running_mean f4 [204]
0	0x396639c2	0.00021956026
1	0x391de726	0.00015058796
2	0x39c94bca	0.00038394175
3	0x397a1d2a	0.00023852722
4	0x3aaa554b	0.001299539
5	0x3b14f016	0.002272611
6	0x3aee5c8b	0.0018185539
7	0x3b599b3d	0.0033204101
8	0x3b2e2d26	0.0026577204
9	0x3c183e23	0.009292158
10	0x39b39985	0.00034255921
11	0x39a9a7be	0.0003235917
12	0x3ab9da48	0.0014179433
13	0x3adff8e2	0.0017087723
14	0x3b9df0d2	0.004819968
15	0x3c8f7b3c	0.017514817
16	0x3cf22f59	0.029563593
17	0x3cbe9706	0.023265373
18	0x3cb0972f	0.021556465
19	0x3ecb1112	0.3966146
20	0x398618d7	0.0002557698
21	0x3a82a1c0	0.0009966418
22	0x3bd2ceb4	0.0064333323
23	0x3d3a49d3	0.04548056
24	0x3e339e65	0.17540891
25	0x3deff835	0.117172636
26	0x3d80979b	0.062789164
27	0x3d15205d	0.036407817
28	0x3bfe1134	0.0077535156
29	0x3c7a54ab	0.0152789755
30	0x3b0a1700	0.0021070838
31	0x3b54a268	0.0032445434
32	0x3c4f225e	0.012642471
33	0x3e63ada9	0.22234215
34	0x3efa6464	0.48904717
35	0x3d24e366	0.040255927
36	0x3c174877	0.009233586
37	0x3ba83481	0.005133212
38	0x3ba11f9e	0.004917099
39	0x3b4fbcd6	0.0031698248
40	0x3ce55378	0.027993903
41	0x3c8c476d	0.017123902
42	0x3c4a7457	0.012356839
43	0x3c582cc9	0.013194271
44	0x3c81042a	0.015749056
45	0x3bc52247	0.006016049
46	0x3b25ed12	0.0025318307
47	0x3ac31e80	0.0014886409
48	0x3b0f704f	0.002188701
49	0x3a850acf	0.0010150316
50	0x3ba2f829	0.0049734307
51	0x3c04d5db	0.008107628
52	0x3bee1dc3	0.0072667315
53	0x3baa6d5c	0.005201025
54	0x3b4e3b21	0.003146835
55	0x3bb68053	0.0055694967
56	0x3b23235c	0.0024892902
57	0x3ace0ad3	0.0015719779
58	0x3adb4d1f	0.0016731358
59	0x3a7ea24b	0.00097135146
60	0x3ab1f14f	0.0013575944
61	0x3b26c149	0.0025444797
62	0x3b966830	0.004590057
63	0x3c24a090	0.010048047
64	0x3b9f9446	0.0048699705
65	0x3b0d67ae	0.002157669
66	0x3afacab0	0.0019133892
67	0x3aa09d6c	0.0012253947
68	0x3a5a7900	0.00083340704
69	0x3a1b30e2	0.0005920065
70	0x3b56a183	0.0032750077
71	0x3b69506b	0.0035600911
72	0x3b996bd0	0.0046820417
73	0x3bebdb2c	0.007197758
74	0x3bafed56	0.005368869
75	0x3ac3df30	0.0014943834
76	0x3ac59ad8	0.0015076054
77	0x3a0a2a37	0.0005270573
78	0x39e85595	0.00044314252
79	0x39d3d7d4	0.0004040586
80	0x3aa58320	0.0012627579
81	0x3b38d5f7	0.0028203705
82	0x3b224f6a	0.0024766573
83	0x3b23a0d9	0.00249677
84	0x3b0e2886	0.0021691634
85	0x3a76a601	0.0009408892
86	0x3a94c97e	0.0011351553
87	0x3a5e641c	0.00084835454
88	0x39fb04a0	0.00047877897
89	0x39af1441	0.0003339369
90	0x3a16381f	0.00057304086
91	0x3ab8b8f8	0.0014093211
92	0x3a3db1b8	0.000723626
93	0x39ed7506	0.00045291352
94	0x3a0c1fb9	0.0005345303
95	0x3a682ef5	0.0008857095
96	0x3994dcf0	0.0002839337
97	0x38a78bcc	7.98922e-05
98	0x390ed614	0.00013621926
99	0x388834db	6.4948304e-05
100	0x00000000	0.0
101	0x00000000	0.0
102	0x00000000	0.0
103	0x00000000	0.0
104	0x00000000	0.0
105	0x00000000	0.0
106	0x00000000	0.0
107	0x00000000	0.0
108	0x00000000	0.0
109	0x00000000	0.0
110	0x00000000	0.0
111	0x00000000	0.0
112	0x00000000	0.0
113	0x00000000	0.0
114	0x00000000	0.0
115	0x00000000	0.0
116	0x00000000	0.0
117	0x00000000	0.0
118	0x00000000	0.0
119	0x3f1a86fe	0.6036223
120	0x00000000	0.0
121	0x00000000	0.0
122	0x00000000	0.0
123	0x00000000	0.0
124	0x00000000	0.0
125	0x00000000	0.0
126	0x00000000	0.0
127	0x00000000	0.0
128	0x00000000	0.0
129	0x00000000	0.0
130	0x00000000	0.0
131	0x00000000	0.0
132	0x00000000	0.0
133	0x00000000	0.0
134	0x3f02e6f3	0.5113365
135	0x00000000	0.0
136	0x00000000	0.0
137	0x00000000	0.0
138	0x00000000	0.0
139	0x00000000	0.0
140	0x00000000	0.0
141	0x00000000	0.0
142	0x00000000	0.0
143	0x00000000	0.0
144	0x00000000	0.0
145	0x00000000	0.0
146	0x00000000	0.0
147	0x00000000	0.0
148	0x00000000	0.0
149	0x00000000	0.0
150	0x00000000	0.0
151	0x00000000	0.0
152	0x00000000	0.0
153	0x00000000	0.0
154	0x00000000	0.0
155	0x00000000	0.0
156	0x00000000	0.0
157	0x00000000	0.0
158	0x00000000	0.0
159	0x00000000	0.0
160	0x00000000	0.0
161	0x00000000	0.0
162	0x00000000	0.0
163	0x00000000	0.0
164	0x00000000	0.0
165	0x00000000	0.0
166	0x00000000	0.0
167	0x00000000	0.0
168	0x00000000	0.0
169	0x00000000	0.0
170	0x00000000	0.0
171	0x00000000	0.0
172	0x00000000	0.0
173	0x00000000	0.0
174	0x00000000	0.0
175	0x00000000	0.0
176	0x00000000	0.0
177	0x00000000	0.0
178	0x00000000	0.0
179	0x00000000	0.0
180	0x00000000	0.0
181	0x00000000	0.0
182	0x00000000	0.0
183	0x00000000	0.0
184	0x00000000	0.0
185	0x00000000	0.0
186	0x00000000	0.0
187	0x00000000	0.0
188	0x00000000	0.0
189	0x00000000	0.0
190	0x00000000	0.0
191	0x00000000	0.0
192	0x00000000	0.0
193	0x00000000	0.0
194	0x00000000	0.0
195	0x00000000	0.0
196	0x00000000	0.0
197	0x00000000	0.0
198	0x00000000	0.0
199	0x00000000	0.0
200	0x401ed233	2.4815795
201	0x40a3f260	5.123337
202	0x00000000	0.0
203	0x00000000	0.0

network_body._body_endoder.seq_layers.0.weight f4 [256, 204]
0	0xbcc51213	-0.02405647
1	0xbda0f14e	-0.07858525
2	0x3c1518e0	0.009100169
3	0xb9fae5b2	-0.00047854852
4	0xbd0aad71	-0.033856813
5	0x3db186c0	0.0866828
6	0xbe026707	-0.12734614
7	0x3cf5bd57	0.02999751
8	0xbd2db4bf	-0.0424087
9	0x3e0551d3	0.13019495
10	0x3c5bffa5	0.01342765
11	0x3d121809	0.035667453
12	0xbd7698ff	-0.060204502
13	0x3dc7aa21	0.097492464
14	0xbcdaed03	-0.026724344
15	0x3e133497	0.1437553
16	0xbdcdd472	-0.10050286
17	0xbcbee74c	-0.02330365
18	0xbe05eab8	-0.1307782
19	0x3e06a4a1	0.13148738
20	0xbd92a334	-0.07160035
21	0x3d36fd8f	0.044675406
22	0x3db1b4d1	0.08677066
23	0xbd7098f4	-0.058739617
24	0xbacd3d64	-0.0015658555
25	0xbcc98548	-0.024599686
26	0x3d0d28ce	0.034462743
27	0xbdc66826	-0.096878335
28	0x3d009e4a	0.031400956
29	0x3d9422f1	0.07233227
30	0xbd82cfad	-0.06387267
31	0xbb697b66	-0.003562653
32	0xbd37d855	-0.044884045
33	0x3d7cc07f	0.061707016
34	0xbde92cdb	-0.113855086
35	0xbd37ea27	-0.04490104
36	0xbc8bc945	-0.017063746
37	0xbd11cb1a	-0.035594083
38	0x3d91d7f9	0.07121272
39	0xbe235e51	-0.15953948
40	0xbcd8f51f	-0.02648407
41	0xbe292c4c	-0.16520804
42	0x3c2b3ed8	0.010451995
43	0xbe265f29	-0.16247238
44	0xbd884c66	-0.06655197
45	0xbc884423	-0.016634053
46	0xbce8ba49	-0.02840914
47	0x3d472cd7	0.048626747
48	0x3d83f55f	0.06443285
49	0x3c6585ac	0.014008921
50	0x3cbc7249	0.023003714
51	0x3d2de674	0.042456105
52	0xbc20325e	-0.0097776335
53	0xbc1e9c78	-0.00968086
54	0xbd0d7ccb	-0.03454284
55	0x3b914c99	0.00443418
56	0x3bd5fd1f	0.0065304185
57	0x3e099e30	0.1343925
58	0xbdbe75b5	-0.092997946
59	0xbcce85cb	-0.025210282
60	0x3da7e91f	0.08198761
61	0x3b072316	0.0020620278
62	0xbddbf2a9	-0.10739643
63	0x3c2e2a76	0.010630241
64	0xb8828a95	-6.224696e-05
65	0xbdda48a1	-0.10658384
66	0xbd8f6ec7	-0.07003551
67	0xbc99b55f	-0.018763242
68	0x3c38d8a9	0.011282125
69	0x3d3a3d59	0.045468662
70	0xba99c236	-0.0011730853
71	0x3e4b705e	0.19867083
72	0xbdb1c4d4	-0.0868012
73	0xbcefc724	-0.029269762
74	0x3d904181	0.07043744
75	0x3d07f6de	0.033194415
76	0x3cc8cb5d	0.024511034
77	0xbdd60a59	-0.104511924
78	0x3cb7fd18	0.022459552
79	0x3ce47fed	0.027893031
80	0x3dfe2744	0.12409833
81	0xbce4be58	-0.027922794
82	0x3dcec81a	0.1009676
83	0x3da43309	0.08017547
84	0xbe306859	-0.17227305
85	0xbbd9f7ed	-0.0066518695
86	0x3bc44b62	0.0059904316
87	0x3c006221	0.007835896
88	0xbceac18b	-0.028656742
89	0xbba6b916	-0.005087982
90	0x3c76b4db	0.015057768
91	0x3d2e5c62	0.042568572
92	0x3cc08e76	0.02350543
93	0x3d810689	0.063000746
94	0x3cdff017	0.027336163
95	0x3da83c10	0.08214581
96	0xbdf62333	-0.120184325
97	0x3dfd25a9	0.12360699
98	0x3de34942	0.11097957
99	0xbdcf7657	-0.101299934
100	0x3ccba2be	0.024857875
101	0xbba60802	-0.0050668726
102	0x3decd163	0.11563375
103	0xbc3668ab	-0.011133353
104	0xbe1dbc6b	-0.15403907
105	0x3d780b74	0.060557798
106	0x3da6d507	0.081461005
107	0x3da215e9	0.07914335
108	0xbd54ebd0	-0.0519827
109	0x3d9e5515	0.07731072
110	0x3d17fbd2	0.03710539
111	0xbcf47edf	-0.029845653
112	0xbc24ea5d	-0.010065642
113	0x3d18233f	0.03714299
114	0x3d958483	0.07300665
115	0x3daaf60b	0.0834771
116	0xbce7782a	-0.02825554
117	0x3d52521d	0.05134784
118	0xbd4c9171	-0.04994339
119	0xbbf9aef0	-0.007619731
120	0xbe0d2ff8	-0.1378783
121	0xbd86c477	-0.065804414
122	0xbde44eca	-0.1114784
123	0x3de51ddf	0.11187338
124	0xbce2c3c4	-0.027681239
125	0x3cd57e43	0.026061183
126	0x3c82cd3c	0.015967004
127	0x3db73117	0.0894491
128	0xbde72b58	-0.11287564
129	0xbc9b942c	-0.018991552
130	0x3dae77fb	0.08518978
131	0x3d8ff7b3	0.07029667
132	0xbd680f52	-0.056655236
133	0xbd6d6a7b	-0.057962876
134	0x3d819619	0.06327457
135	0x3d80b135	0.062837996
136	0x3aacba39	0.0013178057
137	0xbdc7177e	-0.09721278
138	0xbc351f99	-0.011054897
139	0x3c835f9a	0.016036797
140	0xbda48b42	-0.08034374
141	0xbde6ede6	-0.11275844
142	0x3c7342bc	0.014847454
143	0x3d0c2a1a	0.03421984
144	0x3c9d3474	0.01919005
145	0x3d3c7c7b	0.04601715
146	0xbba5ba73	-0.005057627
147	0xbd9352be	-0.07193516
148	0xbd742f45	-0.059615392
149	0xbd04d17e	-0.03242635
150	0x3d6504b5	0.055912692
151	0x3de362cc	0.111028284
152	0x3cfe9353	0.031076109
153	0xbcbcd8bb	-0.023052564
154	0x3df12f4c	0.11776599
155	0xbdfa2513	-0.122141026
156	0xbd8df804	-0.06932071
157	0xbdabd5e9	-0.083904095
158	0x3da0c141	0.0784936
159	0xbb9b9df6	-0.004749055
160	0x3d2baa33	0.04191036
161	0x3d113bd9	0.035457466
162	0x3d814112	0.06311239
163	0x3d92570e	0.071455106
164	0xbcb9b65b	-0.022669962
165	0xbd890d3a	-0.06691976
166	0xb949ce41	-0.0001924569
167	0x3dc26338	0.09491581
168	0x3d3e85de	0.046514384
169	0x3d585796	0.052817903
170	0x3d04a8b6	0.032387458
171	0xbdcf45d8	-0.101207435
172	0x3d86823e	0.065678105
173	0x3d164c3d	0.0366938
174	0x3c9e95c8	0.01935853
175	0x3d9b5065	0.075836934
176	0x3b84d7c1	0.00405404
177	0x3c065d97	0.0082010245
178	0xbdc6633e	-0.09686898
179	0x3cc3825c	0.023865871
180	0x3d6503bd	0.05591177
181	0x3d68904d	0.05677824
182	0xbc1a5db9	-0.009421759
183	0xbca6d05a	-0.020363022
184	0x3c96efc7	0.018424882
185	0x3da5ce14	0.08095947
186	0x3d8fd98b	0.07023915
187	0x3d168524	0.036748067
188	0xbb95e0a0	-0.0045738965
189	0xbb92a8ad	-0.004475674
190	0x3d5a22b5	0.053255755
191	0xbc95593e	-0.01823103
192	0x3d1ed699	0.038778875
193	0xbcf35142	-0.029701833
194	0xbcafb8d0	-0.02145043
195	0x3de6be1a	0.11266728
196	0xbdbc6d2e	-0.09200512
197	0x3d043695	0.032278616
198	0xbd52541d	-0.051349748
199	0x3d067713	0.0328284
200	0xbe416c9d	-0.18889089
201	0xbe249a75	-0.16074546
202	0x3dda3ea7	0.10656481
203	0xbcb5797c	-0.022152655
204	0xbb1bbd04	-0.0023763785
205	0x3bffc3d7	0.0078053284
206	0xbd397e45	-0.045286436
207	0x3d3a7592	0.04552228
208	0x3c044de2	0.008075209
209	0xbd0750f0	-0.033036172
210	0x3c9d4e1d	0.019202286
211	0xbd7199d4	-0.058984593
212	0xbd1a82e5	-0.037722487
213	0xbdd9fb8b	-0.10643681
214	0x3e057c3b	0.13035671
215	0xbdbb9e3c	-0.0916104
216	0xbd4afe80	-0.049559116
217	0xbd5f7228	-0.054552227
218	0x3b928157	0.004470985
219	0xbce7379d	-0.02822476
220	0x3d309e50	0.04311973
221	0x3d318cb9	0.043347094
222	0x3e16284c	0.1466381
223	0xbd2a1b3e	-0.041529886
224	0xbce2bdf1	-0.027678462
225	0x3dda7861	0.10667492
226	0xbbec1cab	-0.007205566
227	0xbd8b797d	-0.068102814
228	0x3d0911f0	0.033464372
229	0xbdfd007b	-0.12353607
230	0xbdc2bb37	-0.09508365
231	0x3dd7b461	0.105324514
232	0xbcc6db1b	-0.0242744
233	0x3d3c04c5	0.045902986
234	0xbe07572c	-0.13216847
235	0xbc95d656	-0.01829068
236	0x3b7db01f	0.0038709713
237	0xbb8943e7	-0.004189003
238	0xbd385751	-0.045005146
239	0xbbdcaf2d	-0.00673475
240	0x3dc3393f	0.09532403
241	0x3db69629	0.089153595
242	0xbd262b66	-0.04056873
243	0xbe0e7bb5	-0.13914378
244	0xbb8c2982	-0.004277409
245	0x3c404277	0.011734596
246	0xbe2045b7	-0.15651594
247	0x3e33d9b1	0.17563511
248	0x3d55c77f	0.052192207
249	0x3bd91019	0.0066242334
250	0xbdf9ce88	-0.12197596
251	0xbe5e4be5	-0.21708639
252	0xbd26681f	-0.04062664
253	0x3d9eeeb5	0.077603735
254	0xbda2356b	-0.07920345
255	0xbd9767ff	-0.073928826

network_body._body_endoder.seq_layers.0.bias f4 [256]
0	0x3bd337e1	0.0064458703
1	0x3c9f3eb7	0.019439084
2	0x3c9ea9d4	0.01936809
3	0xbc7ed2c7	-0.015553183
4	0xbb99802e	-0.0046844697
5	0x3c24bdee	0.010055048
6	0xbbace00c	-0.005275732
7	0xbac394e9	-0.0014921698
8	0x3c636aae	0.013880415
9	0xbc2ea426	-0.010659253
10	0xbbd7c021	-0.006584183
11	0x3ce398c1	0.0277828
12	0x3cabcac0	0.020970702
13	0xbc07e6fd	-0.008294818
14	0xbcb30ddf	-0.0218572
15	0xbb8d50c9	-0.004312609
16	0x3cc8aa79	0.02449535
17	0x3cbbb176	0.022911768
18	0x3b9ecaff	0.0048459764
19	0x3c8df099	0.01732664
20	0x3c4e7d72	0.012603151
21	0x3c1a5406	0.009419447
22	0x3cb62731	0.022235485
23	0x3c051251	0.008122043
24	0xbc028db3	-0.007968354
25	0xbc2b1181	-0.010441185
26	0xb953e2d2	-0.00020207025
27	0xbb3b2711	-0.002855722
28	0xbb8d0ff6	-0.004304881
29	0xbc1bb2ef	-0.00950311
30	0x3d14cf55	0.03633054
31	0x3cb0b161	0.021568956
32	0xbbf91d48	-0.0076023676
33	0x3c146326	0.009056842
34	0x3c0ef8d1	0.008726315
35	0xbc2023fb	-0.009774203
36	0xbc8e1872	-0.01734564
37	0xbaef64f9	-0.0018264345
38	0x3c91fc23	0.017820423
39	0x3cb02954	0.021504082
40	0x3cc37fc6	0.023864638
41	0xbc1f67db	-0.009729351
42	0x3ccddf40	0.025130868
43	0x3d15cd79	0.036572907
44	0x3b6970cf	0.0035620218
45	0x3b427496	0.0029671541
46	0x3cd46a19	0.025929498
47	0x3b84ac41	0.0040488546
48	0x3c4d3fbd	0.012527403
49	0x3cb990d2	0.022652064
50	0x3c952881	0.01820779
51	0x3c4164b4	0.011803795
52	0xbc4ce73d	-0.012506303
53	0xbc45e1b4	-0.012077738
54	0xbc681ef9	-0.014167541
55	0xbc44bd5a	-0.012008036
56	0xbceeb3b1	-0.029138418
57	0xbc9df1f0	-0.019280404
58	0x3b5d265d	0.003374479
59	0x3cf7b071	0.030235501
60	0x3c48b7d9	0.012250864
61	0x3b88ba73	0.004172617
62	0x3c7c4460	0.015397161
63	0x3cdcb068	0.026939586
64	0xbc2234f3	-0.009900319
65	0x3cde4f7f	0.027137516
66	0xbc3e9f31	-0.011634634
67	0xbc1afd96	-0.009459874
68	0x3bb3ecf4	0.0054908935
69	0xbc88ddd9	-0.016707348
70	0x3cd578f2	0.026058648
71	0x3ce0aa71	0.027425023
72	0x3ca1b6ce	0.019740488
73	0x3be87853	0.007094422
74	0x3c53d6c4	0.012929622
75	0x3cb818e8	0.022472814
76	0x3b8e1a59	0.004336637
77	0xbab6b640	-0.0013939813
78	0xbbbcb874	-0.005759293
79	0x3cb84f14	0.022498645
80	0xbc45dfb7	-0.012077264
81	0x3c2d96aa	0.010595003
82	0x3ba414fc	0.0050073843
83	0x3c8b759e	0.017023858
84	0x3bc8d74b	0.0061291805
85	0x3cb577c3	0.022151833
86	0x3c952955	0.018208185
87	0xbb843ca9	-0.0040355516
88	0xbc3dbb9c	-0.011580374
89	0xbcc0bd99	-0.023527907
90	0xbc5fd06b	-0.013660531
91	0xbc480cfc	-0.012210127
92	0x3cc6b35a	0.024255443
93	0xbc4ac9a2	-0.012377175
94	0x3b358de1	0.0027702975
95	0x3cb0f68a	0.021601934
96	0xbc2bbd65	-0.010482167
97	0x3be24cdb	0.0069061345
98	0x3c977d92	0.018492494
99	0x3c81508e	0.015785482
100	0x3d045b2b	0.032313507
101	0xbc455a09	-0.012045392
102	0x3a996d90	0.0011705626
103	0x3c07b3d9	0.008282625
104	0x3c6a3bfb	0.014296527
105	0xbb50c8c1	-0.003185794
106	0x3c5b027e	0.013367293
107	0x3cd91da4	0.026503392
108	0x3c1d5cb7	0.0096046245
109	0xbb7ac501	-0.0038264396
110	0x3bf7e7bd	0.007565467
111	0x3d001fb3	0.03128023
112	0x3ca4c262	0.02011222
113	0x3c5236b2	0.012830423
114	0x3b1d2908	0.0023980755
115	0x3cbf7465	0.02337093
116	0x3c729098	0.014804982
117	0x3ca20b87	0.019780887
118	0x3c92bc8b	0.01791217
119	0x3cbbf486	0.022943746
120	0x3b8d8380	0.0043186545
121	0x3cd5482d	0.026035393
122	0x3c37456c	0.011185985
123	0x3c6f2d99	0.014598274
124	0x3c4c1128	0.012455262
125	0x3b8dbf7e	0.004325806
126	0x3b867ba7	0.004104096
127	0x3bebf15f	0.0072004045
128	0x3cde6d56	0.027151745
129	0xbbec512b	-0.0072118244
130	0xbc74b1c2	-0.014934959
131	0xbc7ac04b	-0.015304635
132	0xbcba1933	-0.022717094
133	0x3bbf156e	0.005831412
134	0x3d0823e8	0.033237368
135	0x3c0ca8a1	0.008585126
136	0x3ca02be4	0.019552179
137	0x3bee0e22	0.0072648684
138	0xbab9cb95	-0.0014175052
139	0xbb62c9bb	-0.0034605104
140	0xbbced620	-0.006312147
141	0xbc366898	-0.0111333355
142	0x3b80d019	0.003931057
143	0xbc6eb365	-0.014569138
144	0xbbfb8726	-0.007676023
145	0xba8c7497	-0.0010715899
146	0xbc39ec0d	-0.011347783
147	0x3d0b1ed0	0.033964932
148	0x3c946435	0.018114189
149	0x3c095d61	0.00838408
150	0x3bd34fd8	0.006448727
151	0xbca6c7a1	-0.020358862
152	0x3bf1e30b	0.007381802
153	0x3cad9ff9	0.021194445
154	0xbbd4a06d	-0.006488851
155	0x3c94b5ce	0.018153097
156	0x3d2e6e9c	0.042585954
157	0x3cd4abe6	0.025960874
158	0xbc10d63f	-0.008840143
159	0x3c4152e0	0.011799544
160	0x3cb2b2f7	0.021813853
161	0x3c91e7c6	0.017810713
162	0x3baef3d1	0.005339124
163	0xbc34cbbd	-0.011034903
164	0x3c8bb497	0.017053885
165	0xbca8af35	-0.020591358
166	0xbc2c5ff0	-0.01052092
167	0xbc04b748	-0.008100338
168	0xbbdb666f	-0.0066955606
169	0x3cfce903	0.030872827
170	0x3b5f4937	0.003407074
171	0x3cb197eb	0.021678885
172	0xba80cfab	-0.0009827515
173	0x3b5980f7	0.0033188441
174	0x3c794849	0.015214988
175	0x3c7042a1	0.014664323
176	0x3b300448	0.002685802
177	0x3c701260	0.014652818
178	0xbb3f3ec7	-0.0029181705
179	0xbb086706	-0.002081336
180	0xb8642e88	-5.440277e-05
181	0xbbc2f5b3	-0.0059497
182	0x3cdb8a8b	0.02679946
183	0xbc17c2b7	-0.009262732
184	0x3c1ed8f6	0.009695282
185	0x3c42a629	0.011880436
186	0x3c5f6627	0.013635195
187	0xbc0cec39	-0.008601242
188	0x3c284cac	0.010272186
189	0x3c2fdafb	0.010733361
190	0x3c924eff	0.017859934
191	0x3d0d4494	0.03448923
192	0xbc12fcd4	-0.008971412
193	0xbbfbb6ae	-0.007681689
194	0x3c9c10d7	0.019050999
195	0x3c206861	0.009790511
196	0xbbaa3fc2	-0.005195589
197	0x3bea79f0	0.0071556494
198	0x3c645af7	0.013937703
199	0x3c2e4aa7	0.010637916
200	0xbac4b52d	-0.0015007608
201	0x3be947ab	0.007119139
202	0xbc8dbcc9	-0.017301934
203	0xbc5bf52a	-0.013425151
204	0x3c881a27	0.016614033
205	0xbc22cbab	-0.009936254
206	0x3c5600dc	0.013061728
207	0x3cbcf959	0.023068117
208	0xbc5485bf	-0.012971341
209	0x3ccb5b72	0.024823878
210	0x3b6b9078	0.0035944264
211	0x3ca46055	0.020065466
212	0x3d15e775	0.036597688
213	0x3c433af3	0.01191591
214	0xbbda3b37	-0.006659891
215	0xbafa9f03	-0.0019120876
216	0xbb864c8f	-0.004098482
217	0xbb8db2e5	-0.0043243044
218	0x3b806630	0.0039184317
219	0x3ce645eb	0.028109511
220	0x3c08012d	0.008301062
221	0x3c602cbc	0.0136825405
222	0x3c651c78	0.013983838
223	0xbbb633f9	-0.005560395
224	0x3caa7a49	0.020810263
225	0xba019b8a	-0.00049441366
226	0x3bb61b7f	0.005557477
227	0x3cc42a6e	0.023946013
228	0x3c3ef739	0.011655622
229	0x3ca3cfaf	0.019996492
230	0xbc7e11ad	-0.015507144
231	0x3c9ab49f	0.018884955
232	0x3c91e00f	0.017807035
233	0x3ca14ec0	0.019690871
234	0x3c256c11	0.010096566
235	0xbc03de09	-0.008048543
236	0x3c29deda	0.010368073
237	0xbc9b9800	-0.018993378
238	0xbc029571	-0.0079702
239	0x3c7e777f	0.01553142
240	0x3c876de8	0.0165319
241	0xbb712cc4	-0.0036800364
242	0x3b8cf8a9	0.0043021035
243	0xbb7e728f	-0.0038825606
244	0x3b1415e8	0.0022596065
245	0x3b8b52b6	0.0042518033
246	0x3c170d56	0.009219488
247	0x3cb5796f	0.02215263
248	0x3cd5689e	0.026050862
249	0x3c53a4d8	0.01291772
250	0x3cd34c23	0.02579314
251	0x3d0d7ef5	0.034544904
252	0x3bbc448e	0.005745477
253	0xbb807ea7	-0.003921348
254	0xbc777a59	-0.015104854
255	0xbc95b3f7	-0.01827429

network_body._body_endoder.seq_layers.2.weight f4 [256, 256]
0	0x3d166d63	0.036725413
1	0xbc6dadd1	-0.014506773
2	0x3e3ba5cf	0.1832497
3	0x3d4e52b5	0.050371844
4	0xbdc92d09	-0.09823043
5	0x3bc8141c	0.006105913
6	0xbd4e9dac	-0.050443336
7	0xbd71e96f	-0.05906051
8	0x3d924484	0.071419746
9	0xbe3cb3ca	-0.18427959
10	0xbccc6d2a	-0.024954397
11	0x3da92ca8	0.08260471
12	0xbe4d222d	-0.20032568
13	0x3e3af6bf	0.18258189
14	0xbce980aa	-0.028503735
15	0x3c135483	0.008992317
16	0x3dc6740b	0.09690102
17	0x3d948e69	0.07253725
18	0x3c78e6c3	0.015191737
19	0xbd9b1535	-0.07572404
20	0x3d155cd3	0.036465477
21	0xbe173c96	-0.14769205
22	0x3e24b323	0.1608396
23	0xbe10f170	-0.14154601
24	0x3c8ba966	0.017048549
25	0xbe629196	-0.22125849
26	0x3cf95327	0.030435158
27	0x3d9f4b73	0.07778063
28	0x3d219fb8	0.03945896
29	0x3d3c6ed7	0.046004143
30	0x3d4b25df	0.049596664
31	0x3d3967ed	0.045265127
32	0xbd9592a3	-0.07303359
33	0xbd39e11a	-0.04538069
34	0xbda842f1	-0.08215893
35	0xbe02fa92	-0.12790897
36	0xbe1e3b38	-0.15452278
37	0x3d01ee68	0.031721503
38	0xbd0c20f5	-0.034211118
39	0xbc981bff	-0.018568037
40	0xbc1d2216	-0.009590646
41	0x3dcd0c74	0.10012141
42	0x3c524019	0.012832665
43	0x3d5604c3	0.052250635
44	0xbb102ca9	-0.0021999276
45	0x3daeee23	0.08541515
46	0x3d992abb	0.07478853
47	0xbd1a4d6a	-0.037671484
48	0x3d0b01b6	0.03393718
49	0x3cd0a3cb	0.025468728
50	0x3e1d882d	0.15383978
51	0xbc2ca03e	-0.010536252
52	0x3bcec575	0.00631016
53	0xbc2b02bb	-0.010437663
54	0x3dd9cec0	0.106351376
55	0xbcd19031	-0.025581451
56	0xbd5513fa	-0.052021004
57	0x3d080b9a	0.03321419
58	0xbbc395aa	-0.005968769
59	0x3d290e6d	0.041273523
60	0xbd01262c	-0.031530544
61	0xbdacd39f	-0.08438801
62	0xbdd1dcca	-0.1024719
63	0x3da3282e	0.07966648
64	0x3ce657ed	0.028118098
65	0xbc3fecc5	-0.011714165
66	0xbb4b9d58	-0.0031069126
67	0x3cbf6691	0.023364337
68	0x3cf70a4c	0.030156277
69	0xba388659	-0.00070390623
70	0x3db5a33a	0.088690236
71	0x3cbc41ee	0.022980656
72	0x3c901357	0.017587347
73	0x3c857008	0.016288772
74	0x3d10999e	0.03530275
75	0x3d203619	0.03911409
76	0xbe0dd813	-0.13851957
77	0xbdffeffe	-0.12496947
78	0x3e17f270	0.14838576
79	0xbd36a04c	-0.044586465
80	0xbd6d7b1d	-0.057978738
81	0x3d3703b5	0.04468127
82	0xbd2f60f0	-0.042817056
83	0xbcd0195c	-0.025402717
84	0xbc0a718d	-0.008449924
85	0xbc87cae4	-0.016576238
86	0xbd918fa0	-0.071074724
87	0xbb69734e	-0.0035621705
88	0xbc92c586	-0.017916452
89	0x3d6c4094	0.057678774
90	0x3c623f50	0.01380904
91	0x3d292bf5	0.041301686
92	0x3d4eb3e0	0.05046451
93	0x3dc56d11	0.096399434
94	0xbdc7d8fc	-0.09758183
95	0xbc8e7b0b	-0.017392656
96	0xbe0ec44d	-0.1394207
97	0x3d4084e5	0.047001738
98	0x3d65c981	0.056100372
99	0x3da30cab	0.079614006
100	0x3dcb6e02	0.09933092
101	0xbd262a08	-0.040567428
102	0xbd89927f	-0.06717395
103	0xbe18f9c1	-0.14939024
104	0x3e10f7cc	0.14157027
105	0xbe44f992	-0.19235829
106	0xbd1b1416	-0.037860952
107	0x3daf4045	0.0855718
108	0xbd1400bd	-0.036133517
109	0x3e5830ca	0.21112362
110	0xbd1b7569	-0.037953768
111	0x3dde1d8c	0.10845479
112	0x3e0d7208	0.1381303
113	0x3a768efd	0.0009405462
114	0xbd284a98	-0.041086763
115	0xbdad42b9	-0.08459992
116	0xbe09c552	-0.13454178
117	0x3c564c90	0.013079777
118	0x3be17b0f	0.006881125
119	0x3d240baa	0.040050186
120	0xbd666421	-0.056247834
121	0x3d25a766	0.040442847
122	0xbd308aac	-0.043100998
123	0x3c79ce2e	0.015246911
124	0x3db157c7	0.0865932
125	0xbcd222a8	-0.025651291
126	0x3d1ad0a5	0.037796635
127	0x3cce1d19	0.02516036
128	0xbdcbaf61	-0.0994556
129	0x3cbb4b7f	0.022863148
130	0xbd98841c	-0.07447073
131	0xbde3e738	-0.11128086
132	0x3c75fdb4	0.015014101
133	0x3dcc056a	0.0996197
134	0x3c5627e2	0.013071032
135	0xbe060775	-0.13088782
136	0x3bda4293	0.0066607683
137	0x3d3d9b45	0.046290655
138	0xbd22ef83	-0.039779197
139	0x3d150a6f	0.036386903
140	0xbdd5e865	-0.10444716
141	0xb9b7c02e	-0.00035047665
142	0x3ca3192a	0.01990946
143	0x3d222c56	0.039593063
144	0xbd8be36f	-0.06830489
145	0xbcdc9970	-0.026928633
146	0xbdd5dac0	-0.10442114
147	0xbce1c7cf	-0.027561096
148	0x3d2ae541	0.04172254
149	0x3c1cd53c	0.009572323
150	0x3c8af893	0.016964233
151	0xbc91b10e	-0.017784622
152	0x3ace20eb	0.0015726363
153	0xbbac87ce	-0.0052652126
154	0xbcba41dc	-0.022736482
155	0xbd1af681	-0.03783274
156	0xbc181ec5	-0.00928468
157	0xbd57f9b6	-0.052728377
158	0xbb1bce32	-0.0023774025
159	0x3c8ef007	0.017448438
160	0xbccd677f	-0.025073765
161	0xbda9e8ce	-0.08296357
162	0xbdef89f0	-0.11696231
163	0xbdc0ec0e	-0.09420024
164	0x3d96b117	0.07357996
165	0x3deadae3	0.114675306
166	0x3c72fa18	0.014830135
167	0xbc646d42	-0.013942065
168	0xbdeed53e	-0.116617665
169	0xbacfa852	-0.001584301
170	0xbb4aeacc	-0.0030962704
171	0xbc8dc82b	-0.017307362
172	0x3c2846b7	0.010270766
173	0xbd6ac8c6	-0.05732038
174	0xbd85ede7	-0.06539517
175	0xbdc7d1af	-0.09756791
176	0xbd7eac14	-0.062175825
177	0xbd83d9ef	-0.06438052
178	0x3de510e8	0.11184865
179	0x3c24b930	0.010053918
180	0x3d5f1700	0.054465294
181	0xbd49e5dd	-0.04929148
182	0x3bc80797	0.0061044204
183	0x3dfd492a	0.123674706
184	0xbc8b2c9e	-0.016989049
185	0xbbe73e9d	-0.0070570246
186	0x3c0eea41	0.008722843
187	0xbd20d1e1	-0.039262656
188	0xbc586642	-0.013207974
189	0xbcf746c3	-0.030185109
190	0x3c2800c8	0.0102540925
191	0x3d5edff4	0.054412797
192	0x3da0d055	0.07852236
193	0xbd9561e7	-0.07294064
194	0xbc53d047	-0.012928075
195	0xbd17a4e0	-0.03702247
196	0x3c1990c3	0.009372893
197	0xbca9273e	-0.020648595
198	0x3c05d2f8	0.008167975
199	0xbe44cf3b	-0.19219677
200	0x3c8a0162	0.016846363
201	0x3ccb9e00	0.024855614
202	0xbd9fe922	-0.078081384
203	0x3d417098	0.04722652
204	0xbd8826a3	-0.06647994
205	0xbd86de5c	-0.065853804
206	0xbca724b4	-0.020403244
207	0x3d48e764	0.049048796
208	0x3cf2c75a	0.029636074
209	0x3e05b7e6	0.13058433
210	0xbe0ebf4f	-0.13940166
211	0x3d992509	0.07477767
212	0x3da65120	0.08120942
213	0x3dff5850	0.12468016
214	0xbd668e17	-0.05628785
215	0x3a5849d2	0.0008250746
216	0xbd8f3794	-0.069930226
217	0xbccec930	-0.025242418
218	0xbc57c9d5	-0.013170679
219	0x3d6d4071	0.057922784
220	0x3d81ffff	0.063476555
221	0xbd0faf0d	-0.03507905
222	0xbaf43b11	-0.0018633326
223	0xbcdfabb2	-0.02730355
224	0x3cf15aa3	0.029462164
225	0xbbba572e	-0.005686662
226	0x3e0dce1a	0.13848153
227	0xbc4eff11	-0.012634055
228	0x3c712757	0.014718852
229	0x3c52dfb8	0.0128707215
230	0x3dde8cea	0.10866721
231	0x3d4d89ef	0.05018037
232	0xbda1eb1c	-0.07906172
233	0x3d3d10f0	0.04615873
234	0xbcf66202	-0.03007603
235	0xbd98551b	-0.074381076
236	0x3beefe26	0.0072934804
237	0x3b1c1c7e	0.0023820694
238	0xbcc8e139	-0.024521457
239	0xbd54197f	-0.051782127
240	0x3d7f4ea9	0.062330876
241	0x3e05d658	0.13070047
242	0x3cae39bb	0.021267762
243	0xbd3fa98d	-0.046792556
244	0xbc9eef23	-0.019401139
245	0x3da42ab7	0.0801596
246	0x3d7358a9	0.059410725
247	0x3cc946f1	0.02456996
248	0x3ceaa86d	0.028644765
249	0xbd818b42	-0.063253894
250	0xbac089fa	-0.0014689558
251	0xbd452add	-0.04813658
252	0x3dd9ca06	0.10634236
253	0x3c140d75	0.0090364115
254	0xbd471a0d	-0.04860883
255	0xbd4cae4d	-0.049970914

network_body._body_endoder.seq_layers.2.bias f4 [256]
0	0x3cbad535	0.022806743
1	0x3c8725f7	0.016497595
2	0x3c9bea1c	0.01903253
3	0xbc130525	-0.0089733945
4	0x3ccb1f80	0.024795294
5	0x3a0f2dae	0.0005461824
6	0xbc0a9c53	-0.008460122
7	0xbb9af456	-0.004728834
8	0xbb91020c	-0.004425293
9	0x3cca02cc	0.024659537
10	0xbb540b50	-0.0032355376
11	0x3c31e2a9	0.010857263
12	0x3cb5f077	0.02220939
13	0xbb918b93	-0.0044416874
14	0x3c2deae7	0.010615087
15	0xbc1d7c3c	-0.009612139
16	0xbb848db2	-0.0040452117
17	0x3c8f23a5	0.017473051
18	0xbc39c87b	-0.011339302
19	0xbaaf1fce	-0.0013360919
20	0x3c7bb0bb	0.01536196
21	0x3c9be55c	0.019030266
22	0x3c8ece9e	0.017432507
23	0x3c9e0b62	0.019292537
24	0x3c348dda	0.011020148
25	0x3c046deb	0.008082847
26	0x3c8bcd52	0.017065678
27	0x3c2ea6ff	0.010659932
28	0xbbf7f8d6	-0.0075675054
29	0x3b06146e	0.0020458954
30	0x3cd7d70a	0.026347656
31	0x3cf7d678	0.030253634
32	0x3ca1d479	0.019754635
33	0xbc22e7d9	-0.009942972
34	0x3c3fe7b8	0.011712961
35	0x3cd78e6c	0.02631303
36	0x3ba5b258	0.0050566606
37	0x3cad0af1	0.021123381
38	0x3ca7676d	0.02043506
39	0x3b4f1c7e	0.0031602676
40	0x3c2cb94c	0.010542225
41	0x3c2b4e3f	0.010455667
42	0x3b1d18bb	0.002397104
43	0x3c8a80b1	0.016907068
44	0x3d12fa97	0.035883512
45	0xbb6e127f	-0.0036326942
46	0x3c38a45b	0.011269654
47	0xbc64b2b8	-0.0139586255
48	0x3d0b335a	0.03398452
49	0x3a5ae7fe	0.00083506096
50	0xbb5374b6	-0.003226561
51	0xbbe314e0	-0.0069299787
52	0x3cd81ca5	0.026380846
53	0xbc639dba	-0.013892585
54	0xbc31ee5b	-0.010860051
55	0x3bb88b4c	0.00563184
56	0xbc465622	-0.012105497
57	0x3c5a6c5f	0.013331502
58	0x3c25663e	0.010095177
59	0x3c958199	0.018250274
60	0xbb99048c	-0.0046697315
61	0x3cb000dd	0.021484787
62	0xbc2418be	-0.010015665
63	0x3c265f72	0.010154592
64	0x3b300a16	0.002686148
65	0xbbc8718a	-0.0061170505
66	0x3c20cc41	0.009814323
67	0x3c87bcbe	0.016569491
68	0xbc39d87c	-0.011343118
69	0x3c7417a5	0.014898215
70	0x3cab93e9	0.020944552
71	0xbc07eca7	-0.008296168
72	0x3c49dc67	0.012320614
73	0xbc2cf002	-0.010555269
74	0xbaab3b70	-0.0013063978
75	0xbc12fa14	-0.008970756
76	0xbab3c000	-0.0013713837
77	0x3ca20247	0.019776477
78	0x3cd1ea6d	0.025624478
79	0x3c83b0c3	0.016075497
80	0x3ceb4f11	0.028724225
81	0xbc541738	-0.012944989
82	0x3c06a667	0.008218384
83	0x3c994a00	0.018712044
84	0x3c62b11f	0.013836174
85	0x3c4bef86	0.012447244
86	0xbc972180	-0.018448591
87	0xbc5ac6f5	-0.013353099
88	0xba9a7dbd	-0.001178674
89	0x3c9b0210	0.018921882
90	0xbc03a918	-0.008035921
91	0x3c30fd7c	0.010802623
92	0xbc271045	-0.01019675
93	0x3b6fc121	0.003658362
94	0xbc8d3386	-0.017236482
95	0xbc6e3974	-0.014540065
96	0x3c50e1e1	0.012749166
97	0x3c409e63	0.011756512
98	0x3cb78bfc	0.022405617
99	0xbc2e277c	-0.010629531
100	0xbc43c1c0	-0.011948049
101	0xbb05385e	-0.0020327787
102	0x3cb591aa	0.022164185
103	0xbc802999	-0.015644835
104	0x3cb5082a	0.02209862
105	0xbbddde0c	-0.006770855
106	0x3a75243d	0.0009351408
107	0x3c87065c	0.016482525
108	0xbc32d1b5	-0.010914256
109	0x3c81e169	0.015854554
110	0x3cbbb057	0.022911234
111	0x3c749e02	0.01493025
112	0xbc6f5a1f	-0.014608889
113	0x3b57f388	0.0032951552
114	0xbc01d99a	-0.007925415
115	0xbb9e1ccb	-0.0048252097
116	0xb911b518	-0.0001389574
117	0x3cbb54ee	0.022867646
118	0x3d0e6719	0.03476629
119	0x3b62a111	0.0034580866
120	0x3c614967	0.013750411
121	0x3c925412	0.017862353
122	0x3c4fcaa2	0.012682589
123	0x3c7c6030	0.015403792
124	0xbc733200	-0.014843464
125	0x3c1501c8	0.009094663
126	0x3c767949	0.015043565
127	0xbb818203	-0.003952266
128	0x3c2ae527	0.010430611
129	0x3cb896c3	0.022532826
130	0x3bc2a374	0.0059398953
131	0x3aeb2de1	0.001794275
132	0x3b7ee5eb	0.0038894366
133	0xba11e750	-0.0005565779
134	0x3c70119d	0.014652637
135	0x3c96d6fa	0.018413056
136	0x3c82cd0d	0.015966916
137	0x3a2aeedf	0.000652058
138	0xbc4deb5c	-0.012568321
139	0x3b749a1a	0.0037323297
140	0x3c8997d0	0.016796023
141	0x3c2dd97a	0.0106109325
142	0xbc7ccbe4	-0.015429471
143	0x3ce03e5b	0.027373483
144	0x3cbd45bc	0.023104541
145	0x3c941844	0.018077977
146	0x3b891bef	0.004184238
147	0x3c0afafa	0.008482689
148	0x3acfb0af	0.0015845502
149	0x3c5e2998	0.013559721
150	0xbc2e2d65	-0.01063094
151	0x3ca46f83	0.020072704
152	0xbc6fa932	-0.014627742
153	0x3bd68c15	0.006547461
154	0x3c977ccc	0.018492125
155	0x3c2e4114	0.010635633
156	0x3baba179	0.005237755
157	0x3c4b4291	0.012406007
158	0xbb391b06	-0.0028244867
159	0x3c8e6a90	0.017384797
160	0xb916f0a3	-0.00014394759
161	0x3a20980f	0.0006126174
162	0x3c2899a0	0.010290533
163	0xbc2482cc	-0.01004095
164	0x3c95baa3	0.018277472
165	0xbbddc788	-0.0067681707
166	0x3badbfd2	0.005302408
167	0xba28063e	-0.00064096216
168	0x3ca079f3	0.0195894
169	0x3cb0dd52	0.021589909
170	0x39577853	0.00020548822
171	0xbbade476	-0.0053067757
172	0x3b15a9d9	0.0022836833
173	0x3bb16ae1	0.0054143523
174	0xbb009728	-0.0019621346
175	0x3b25e7aa	0.0025315084
176	0x3c8d672b	0.017261108
177	0x3c60206b	0.013679604
178	0x3b8af18f	0.004240222
179	0xbbbb4ea3	-0.0057161613
180	0x3b673257	0.0035277808
181	0xbc846706	-0.016162407
182	0x3cc0829d	0.023499781
183	0x3c960bd7	0.018316193
184	0x3cbf42d8	0.023347303
185	0x3c59b483	0.013287666
186	0x3b2c3dbe	0.0026281918
187	0xbbcad0d1	-0.0061894436
188	0xbbf9f4c8	-0.007628057
189	0xb9a5220d	-0.00031496622
190	0xbc101c17	-0.00879576
191	0x3c672a12	0.014109151
192	0xbbe7ed84	-0.0070778746
193	0xbb2bd065	-0.0026216742
194	0xbbae388a	-0.0053167986
195	0x3d049457	0.03236803
196	0x3cd0b72e	0.025477972
197	0x3c598c85	0.013278131
198	0x3c612f44	0.013744179
199	0xbbb9e532	-0.005673074
200	0x3bdfb475	0.006826932
201	0x3c09e418	0.008416198
202	0xbc2e8337	-0.010651401
203	0xbc4e650f	-0.012597336
204	0x3c7c6c54	0.015406687
205	0x3cd9b51e	0.026575621
206	0x3c95a49c	0.018266968
207	0xbc633a2b	-0.013868849
208	0x3c1affa2	0.009460362
209	0x3c81ba03	0.015835768
210	0x3c511ab3	0.012762713
211	0x3c471a88	0.012152322
212	0xbc13672d	-0.008996767
213	0x3af1263d	0.0018398237
214	0x3cc128ba	0.02357899
215	0x3b45b343	0.0030166663
216	0x3c2e5c9e	0.010642199
217	0x3c7694f7	0.015050164
218	0x3cb727dd	0.022357875
219	0xbbce0404	-0.0062871
220	0x3c408c94	0.011752266
221	0x3cab7d89	0.020933883
222	0xbc660c78	-0.014041059
223	0xbb7d0d7c	-0.0038612774
224	0x3ce8c373	0.02841351
225	0x3c839200	0.01606083
226	0xba7f36f3	-0.0009735666
227	0xbc00a4e8	-0.007851817
228	0x3cb9367e	0.022608992
229	0x3ca2ae19	0.019858407
230	0xbb288158	-0.002571186
231	0x3c72e11d	0.014824179
232	0x3c86e56d	0.01646682
233	0xbaa640b5	-0.0012684079
234	0x3c30e94f	0.010797813
235	0x3c9d50e5	0.019203613
236	0x3c10b09a	0.008831168
237	0xbbf3cd7b	-0.0074402667
238	0x3bf84284	0.0075762887
239	0x3cba5d37	0.022749526
240	0x3cd07d6f	0.025450436
241	0xbc264de8	-0.01015041
242	0x3c4cd955	0.012502988
243	0x3cd357d0	0.025798708
244	0x3c3eca90	0.011644974
245	0xbb0b215c	-0.00212296
246	0x3b372b68	0.0027949456
247	0x3c91b0b1	0.017784448
248	0x3c9de865	0.019275853
249	0x3c1b61ca	0.009483764
250	0xbb65e858	-0.0035081115
251	0x3c380b99	0.011233234
252	0x3cd845f5	0.026400546
253	0x3cb4a3fa	0.022050846
254	0x3c60ac1b	0.013712908
255	0xbb2de918	-0.002653664

action_model._continuous_distribution.log_sigma f4 [1, 2]
0	0xbe8de394	-0.2771269
1	0xbea9829e	-0.33107466

action_model._continuous_distribution.mu.weight f4 [2, 256]
0	0x3d816a06	0.063190505
1	0xbc6c0972	-0.014406549
2	0x3d6b8ab0	0.05750531
3	0xbcdbebbe	-0.02684581
4	0x3d6d7797	0.057975378
5	0x3bf523ce	0.007481075
6	0xbd336562	-0.043797858
7	0xbd9626de	-0.07331632
8	0xbc024b21	-0.007952482
9	0x3d8856dd	0.06657193
10	0xbccc7485	-0.024957905
11	0xbc9580c5	-0.018249879
12	0x3d97e13f	0.07416009
13	0xbd3dcef8	-0.04633996
14	0x3d41927c	0.04725884
15	0xbd46a189	-0.048493896
16	0xbcd5e71d	-0.02611118
17	0x3d134b11	0.03596026
18	0xbc95e895	-0.01829938
19	0xbcb545b8	-0.022127971
20	0x3d298cf4	0.04139419
21	0xbc869274	-0.016427256
22	0x3d7a6d52	0.061139412
23	0x3ce6310d	0.028099561
24	0x3d13861c	0.03601657
25	0x3d1cc2ef	0.03827184
26	0x3d14027d	0.036135186
27	0x3cc83a85	0.024441967
28	0x3c943425	0.01809127
29	0x3d30098b	0.04297785
30	0x3d1f4352	0.03888256
31	0x3d9d88ac	0.07692084
32	0x3d8a5796	0.06754987
33	0xbd30d35d	-0.04317032
34	0x3ce2e8a5	0.027698824
35	0x3d776c34	0.060405925
36	0xbc36ea63	-0.011164281
37	0x3d28cd25	0.041211266
38	0x3d6ddc6a	0.05807153
39	0x3d108c57	0.03529009
40	0x3c5f6aeb	0.013636331
41	0x3c85a24e	0.016312744
42	0xbd05b770	-0.032645643
43	0x3c666957	0.014063201
44	0x3da91eb0	0.08257806
45	0xbafd469d	-0.0019323413
46	0xbbb024cb	-0.00537548
47	0xbd1f21df	-0.03885066
48	0x3d99d2ff	0.075109474
49	0xbd7d3c2d	-0.061824966
50	0xbc039530	-0.008031175
51	0xbdaa794f	-0.08323919
52	0x3d3685de	0.04456126
53	0xbd0e56dd	-0.034750808
54	0xbc91933e	-0.017770406
55	0x3d0fd005	0.035110492
56	0x3c19058e	0.009339703
57	0x3d1608fd	0.036629666
58	0x3ccd5e69	0.025069432
59	0x3d6ce720	0.057837605
60	0x3c5cd159	0.013477647
61	0x3d6061ac	0.054780647
62	0xbd05e400	-0.03268814
63	0xbd135b3d	-0.035975683
64	0x3c35c5a8	0.011094488
65	0xbd9de6d0	-0.077100396
66	0x3c0804d9	0.008301937
67	0x3d2b4ad6	0.041819416
68	0xbd22e7a1	-0.03977168
69	0x3d796ffb	0.06089781
70	0x3d040c2c	0.03223817
71	0xbd8d9d72	-0.06914796
72	0x3c41b1a0	0.011822134
73	0xbd3af51c	-0.04564391
74	0xbd84dbdd	-0.06487248
75	0xbc9a6f59	-0.018851923
76	0xbcbc87cf	-0.023013977
77	0x3c9b6cb3	0.01897273
78	0x3d8ece3e	0.06972931
79	0x3d138f11	0.03602511
80	0x3db70b98	0.08937758
81	0xbd108968	-0.03528729
82	0xbc59c4d7	-0.013291559
83	0x3d81351a	0.063089564
84	0xbc4bc973	-0.012438166
85	0xbc6a8d62	-0.014315935
86	0x3ba8da0b	0.005152946
87	0xbc2bfa72	-0.0104967225
88	0xbd288633	-0.041143607
89	0x3b6330cf	0.0034666543
90	0xbcff6c60	-0.031179607
91	0xbd50981e	-0.05092632
92	0xbccdde32	-0.025130365
93	0x3c988770	0.01861927
94	0xbc357fd2	-0.011077838
95	0xbba4c88f	-0.0050287913
96	0x3c75ad3e	0.014994917
97	0x3d247a50	0.04015571
98	0x3d89c6e3	0.06727388
99	0xbd7844ba	-0.060612418
100	0xbd55a217	-0.052156534
101	0xb9fd15a0	-0.00048272032
102	0x3d6253ed	0.05525582
103	0xbcd3dcec	-0.02586218
104	0x3d4901d5	0.049074013
105	0xbb4ab823	-0.0030932508
106	0x3b9678d3	0.00459204
107	0x3c24ddc1	0.010062636
108	0xbd4f8f02	-0.050673492
109	0xbabb6a37	-0.0014298622
110	0x3d843d84	0.06457046
111	0x3d52b96c	0.051446363
112	0xbd1b6109	-0.037934337
113	0xbd14058b	-0.0361381
114	0xbd8cb26a	-0.06869967
115	0xbda07e56	-0.07836597
116	0xbcd3d672	-0.025859091
117	0x3c3581e7	0.011078334
118	0x3d811601	0.06303025
119	0xbbb68216	-0.0055697067
120	0xbc8e34b0	-0.017359108
121	0x3d4c643b	0.049900275
122	0x3cb7ca8e	0.022435453
123	0x3d0468d7	0.032326546
124	0xbcbc71c6	-0.02300347
125	0x3d393a29	0.04522148
126	0x3d29f44d	0.04149275
127	0x3bd30025	0.006439226
128	0x3cca666c	0.024707042
129	0x3d9012e9	0.07034857
130	0x3c91eae7	0.017812205
131	0xbccd7514	-0.025080241
132	0xbcee1f8a	-0.029067773
133	0xbb2131a7	-0.0024596245
134	0x3d00b13d	0.031419028
135	0x3d5b819d	0.053590406
136	0x3cbfa9d8	0.023396417
137	0x3c425245	0.011860435
138	0xbd2f435e	-0.042788856
139	0x3b58ef4b	0.0033101614
140	0x3c537dd8	0.012908421
141	0x3d310181	0.043214325
142	0xbd1c84cb	-0.03821258
143	0x3d52be39	0.05145094
144	0x3db23272	0.08701028
145	0x3d7f469c	0.062323198
146	0xbd457a1d	-0.04821216
147	0x3d4e9ec0	0.050444365
148	0xbc9a5ea9	-0.018843966
149	0x3d586a9a	0.05283604
150	0xbd2a7deb	-0.04162399
151	0x3c99adde	0.018759664
152	0x3c1ca08d	0.009559763
153	0x3cf5e5f0	0.03001687
154	0x3cb155ae	0.0216473
155	0x3d233322	0.039843686
156	0x3ce63f31	0.028106304
157	0x3d2182f5	0.03943153
158	0xbcc9430f	-0.024568109
159	0x3c94ff0f	0.018188028
160	0xbd94268d	-0.072339155
161	0xbcbf9acd	-0.023389244
162	0x3d1363b2	0.03598375
163	0xbc962985	-0.018330345
164	0x3d2a4c75	0.04157682
165	0xbcdc3240	-0.02687943
166	0xbd40360e	-0.04692655
167	0xbce57f20	-0.02801472
168	0x3d1e2ca5	0.038616795
169	0x3d48a77c	0.04898785
170	0x3bae818b	0.0053255013
171	0xbd711ded	-0.05886643
172	0xbd44b05d	-0.048019756
173	0x3d31f51a	0.043446638
174	0xbd5d0108	-0.05395606
175	0xbcb44252	-0.02200428
176	0x3d064013	0.03277595
177	0x3d3d09c7	0.046151903
178	0x3cfe080b	0.031009695
179	0xbd2052ea	-0.039141573
180	0x3cb7c868	0.022434428
181	0xbbf31cc1	-0.007419199
182	0x3d99f157	0.07516735
183	0x3d27fffb	0.041015606
184	0x3d438e7c	0.047743306
185	0xbc845293	-0.016152656
186	0xbcc465bf	-0.023974298
187	0xbbfe0e3b	-0.0077531612
188	0xbd01d20a	-0.03169445
189	0x3be75761	0.007059977
190	0xbae10c22	-0.0017169754
191	0x3d5df37b	0.05418728
192	0x3d1a4721	0.03766549
193	0xbb880413	-0.0041508763
194	0x3c8931cf	0.016747383
195	0x3dc5e546	0.09662871
196	0x3d514fbe	0.05110144
197	0xbc42164f	-0.011846139
198	0xbc0aca58	-0.008471094
199	0x3bfea85e	0.007771536
200	0xbcc9769f	-0.024592696
201	0x3cab8d34	0.020941354
202	0x3c50d21f	0.012745409
203	0xbc914e46	-0.017737519
204	0x3d4d26d8	0.050085872
205	0x3da07901	0.0783558
206	0x3cd1ceb2	0.025611255
207	0xbd178ead	-0.0370013
208	0xbc168f32	-0.009189414
209	0x3b907df7	0.0044095474
210	0xbc4aa70d	-0.01236893
211	0x3d075a3c	0.03304504
212	0xbd0b896d	-0.034066606
213	0x3bc1ed10	0.0059181526
214	0x3d30fb53	0.04320843
215	0xbd45ba06	-0.04827311
216	0x3cdf39c3	0.027249223
217	0xbac9095f	-0.0015337876
218	0x3d28aeb9	0.041182254
219	0xbd658ff6	-0.056045495
220	0x3d16c9eb	0.036813658
221	0x3cfebbf8	0.03109549
222	0xbd1883c4	-0.037235036
223	0xbd598736	-0.053107463
224	0x3da43efd	0.080198266
225	0x3d0b5b8a	0.034022845
226	0xbd2d780d	-0.042350817
227	0x3caeca2c	0.021336637
228	0x3c8d332c	0.017236315
229	0x3dbfa8b9	0.09358353
230	0xbd45083b	-0.048103552
231	0x3bc720bc	0.0060769003
232	0x3d1d283d	0.038368452
233	0xbcec319d	-0.028832251
234	0x3d11001a	0.035400487
235	0x3d62eedf	0.055403586
236	0xbd323df2	-0.043516107
237	0xbc5f70d7	-0.013637743
238	0x3c361b40	0.011114895
239	0x3d4237e9	0.0474166
240	0x3d875ebb	0.06609865
241	0xbd002ab6	-0.031290732
242	0x3c5b4ecc	0.013385486
243	0x3da46af4	0.08028212
244	0xbc0b6e2a	-0.008510152
245	0xbced1bac	-0.028943859
246	0x3ba9dc5e	0.0051837405
247	0xbc293671	-0.010327921
248	0xbc532f75	-0.012889733
249	0xb9afa8cf	-0.00033504373
250	0xbd684cad	-0.05671375
251	0x3c21c385	0.009873276
252	0x3db51df0	0.08843601
253	0x3d763f43	0.060118925
254	0xbbf966ec	-0.007611146
255	0xbd37ff6c	-0.044921324

action_model._continuous_distribution.mu.bias f4 [2]
0	0x3c6fec89	0.014643797
1	0x3a3dd468	0.0007241429

onnx::Div_51 f4 [204]
0	0x3c72dc46	0.014823025
1	0x3c4937dd	0.012281385
2	0x3ca08288	0.019593492
3	0x3c7d2038	0.015449576
4	0x3d1392f9	0.036028836
5	0x3d430d29	0.047619972
6	0x3d2e879c	0.042609796
7	0x3d6ba2c2	0.057528265
8	0x3d52e63c	0.0514891
9	0x3dc480d5	0.09594885
10	0x3c97a355	0.0185105
11	0x3c936387	0.017991794
12	0x3d1a2626	0.037634037
13	0x3d2932f7	0.04130837
14	0x3d8dd61c	0.06925604
15	0x3e065425	0.13118036
16	0x3e2d721c	0.1693806
17	0x3e1a5d24	0.15074593
18	0x3e14b76e	0.14523098
19	0x3efa77d9	0.48919562
20	0x3c830e7b	0.015998116
21	0x3d01431d	0.031558145
22	0x3da3bd0b	0.079950415
23	0x3e555c30	0.20835948
24	0x3ec2b8ca	0.38031608
25	0x3ea4ac3d	0.32162657
26	0x3e786734	0.24258119
27	0x3e3fcbf5	0.18730147
28	0x3db3a359	0.087713905
29	0x3dfb33ab	0.12265714
30	0x3d3bd86e	0.0458607
31	0x3d68f1be	0.05687117
32	0x3de4d0bc	0.111726254
33	0x3ed4e674	0.41582072
34	0x3efff00a	0.49987823
35	0x3e494799	0.19656219
36	0x3dc3e511	0.09565175
37	0x3d925d2b	0.07146677
38	0x3d8f43c9	0.06995351
39	0x3d663d3d	0.056210745
40	0x3e28e934	0.1649521
41	0x3e04d9f8	0.12973773
42	0x3de23fca	0.11047323
43	0x3de9b14f	0.11410772
44	0x3dfefc33	0.12450447
45	0x3d9e5f61	0.07733036
46	0x3d4ddf11	0.05026156
47	0x3d1df3b7	0.038562503
48	0x3d3f6ca1	0.046734456
49	0x3d0275f7	0.03185078
50	0x3d90110b	0.07034501
51	0x3db7a888	0.08967692
52	0x3dadf3c1	0.08493758
53	0x3d935175	0.07193271
54	0x3d65694e	0.05600863
55	0x3d986ba9	0.074424095
56	0x3d4c239f	0.04983866
57	0x3d224fe2	0.039626963
58	0x3d27737e	0.040881626
59	0x3cff3ec5	0.03115786
60	0x3d16d02f	0.036819633
61	0x3d4e5f02	0.050383575
62	0x3d8a6f9e	0.067595705
63	0x3dcc4366	0.09973793
64	0x3d8e9221	0.069614656
65	0x3d3e10d8	0.046402782
66	0x3d330228	0.04370323
67	0x3d0f4915	0.034981806
68	0x3cec6237	0.028855426
69	0x3cc74b39	0.024327861
70	0x3d6a0551	0.057133976
71	0x3d73f6f0	0.05956167
72	0x3d8bcf88	0.06826693
73	0x3dad2199	0.08453674
74	0x3d95ab28	0.07308036
75	0x3d1e3e13	0.038633417
76	0x3d1ef3fc	0.0388069
77	0x3cbc0890	0.022953302
78	0x3cac7087	0.021049751
79	0x3ca4a9e4	0.020100541
80	0x3d1179ba	0.035516478
81	0x3d5939a0	0.05303347
82	0x3d4b9c09	0.049709354
83	0x3d4c6f71	0.049910966
84	0x3d3e91eb	0.046525877
85	0x3cfb316c	0.030663215
86	0x3d09f3ef	0.0336799
87	0x3cee867d	0.029116863
88	0x3cb3381f	0.021877347
89	0x3c95b825	0.018276284
90	0x3cc41546	0.023935925
91	0x3d19adfd	0.037519444
92	0x3cdc4ecb	0.02689304
93	0x3cae5617	0.021281285
94	0x3cbd6273	0.023118233
95	0x3cf3b8c8	0.029751197
96	0x3c8a12b7	0.016854627
97	0x3c12b251	0.008953647
98	0x3c3f64ab	0.011681716
99	0x3c0452a7	0.0080763465
100	0x3a0c87ba	0.0005360801
101	0x3a0c87ba	0.0005360801
102	0x3a0c87ba	0.0005360801
103	0x3a0c87ba	0.0005360801
104	0x3a0c87ba	0.0005360801
105	0x3a0c87ba	0.0005360801
106	0x3a0c87ba	0.0005360801
107	0x3a0c87ba	0.0005360801
108	0x3a0c87ba	0.0005360801
109	0x3a0c87ba	0.0005360801
110	0x3a0c87ba	0.0005360801
111	0x3a0c87ba	0.0005360801
112	0x3a0c87ba	0.0005360801
113	0x3a0c87ba	0.0005360801
114	0x3a0c87ba	0.0005360801
115	0x3a0c87ba	0.0005360801
116	0x3a0c87ba	0.0005360801
117	0x3a0c87ba	0.0005360801
118	0x3a0c87ba	0.0005360801
119	0x3efa6f7f	0.4891319
120	0x3a0c87ba	0.0005360801
121	0x3a0c87ba	0.0005360801
122	0x3a0c87ba	0.0005360801
123	0x3a0c87ba	0.0005360801
124	0x3a0c87ba	0.0005360801
125	0x3a0c87ba	0.0005360801
126	0x3a0c87ba	0.0005360801
127	0x3a0c87ba	0.0005360801
128	0x3a0c87ba	0.0005360801
129	0x3a0c87ba	0.0005360801
130	0x3a0c87ba	0.0005360801
131	0x3a0c87ba	0.0005360801
132	0x3a0c87ba	0.0005360801
133	0x3a0c87ba	0.0005360801
134	0x3effef1a	0.49987108
135	0x3a0c87ba	0.0005360801
136	0x3a0c87ba	0.0005360801
137	0x3a0c87ba	0.0005360801
138	0x3a0c87ba	0.0005360801
139	0x3a0c87ba	0.0005360801
140	0x3a0c87ba	0.0005360801
141	0x3a0c87ba	0.0005360801
142	0x3a0c87ba	0.0005360801
143	0x3a0c87ba	0.0005360801
144	0x3a0c87ba	0.0005360801
145	0x3a0c87ba	0.0005360801
146	0x3a0c87ba	0.0005360801
147	0x3a0c87ba	0.0005360801
148	0x3a0c87ba	0.0005360801
149	0x3a0c87ba	0.0005360801
150	0x3a0c87ba	0.0005360801
151	0x3a0c87ba	0.0005360801
152	0x3a0c87ba	0.0005360801
153	0x3a0c87ba	0.0005360801
154	0x3a0c87ba	0.0005360801
155	0x3a0c87ba	0.0005360801
156	0x3a0c87ba	0.0005360801
157	0x3a0c87ba	0.0005360801
158	0x3a0c87ba	0.0005360801
159	0x3a0c87ba	0.0005360801
160	0x3a0c87ba	0.0005360801
161	0x3a0c87ba	0.0005360801
162	0x3a0c87ba	0.0005360801
163	0x3a0c87ba	0.0005360801
164	0x3a0c87ba	0.0005360801
165	0x3a0c87ba	0.0005360801
166	0x3a0c87ba	0.0005360801
167	0x3a0c87ba	0.0005360801
168	0x3a0c87ba	0.0005360801
169	0x3a0c87ba	0.0005360801
170	0x3a0c87ba	0.0005360801
171	0x3a0c87ba	0.0005360801
172	0x3a0c87ba	0.0005360801
173	0x3a0c87ba	0.0005360801
174	0x3a0c87ba	0.0005360801
175	0x3a0c87ba	0.0005360801
176	0x3a0c87ba	0.0005360801
177	0x3a0c87ba	0.0005360801
178	0x3a0c87ba	0.0005360801
179	0x3a0c87ba	0.0005360801
180	0x3a0c87ba	0.0005360801
181	0x3a0c87ba	0.0005360801
182	0x3a0c87ba	0.0005360801
183	0x3a0c87ba	0.0005360801
184	0x3a0c87ba	0.0005360801
185	0x3a0c87ba	0.0005360801
186	0x3a0c87ba	0.0005360801
187	0x3a0c87ba	0.0005360801
188	0x3a0c87ba	0.0005360801
189	0x3a0c87ba	0.0005360801
190	0x3a0c87ba	0.0005360801
191	0x3a0c87ba	0.0005360801
192	0x3a0c87ba	0.0005360801
193	0x3a0c87ba	0.0005360801
194	0x3a0c87ba	0.0005360801
195	0x3a0c87ba	0.0005360801
196	0x3a0c87ba	0.0005360801
197	0x3a0c87ba	0.0005360801
198	0x3a0c87ba	0.0005360801
199	0x3a0c87ba	0.0005360801
200	0x3fad4111	1.3535482
201	0x401afabd	2.4215539
202	0x3a0c87ba	0.0005360801
203	0x3a0c87ba	0.0005360801
